ae_1M.pt (torch, 490655 bytes, 4 tensors)

fc1.weight f4 [16, 3706]
0.07080722 0.03346522 0.029981328 0.0008028643 0.010566075 0.020302787 0.029866133 0.002447521
-0.0015902154 -0.00678948 0.010958335 0.0091924695 -0.0027277505 0.008093075 0.0030631337 -0.02057216
0.060164187 -0.013305177 0.011508798 -0.0037078902 0.002549634 -0.0059857913 0.0026737358 0.009736166
0.0470832 -0.0135568 -0.011748363 -0.0028154938 -0.0017461819 0.0029861603 0.00050280517 0.011509047
0.0028360607 0.06362807 0.0008130804 0.04666812 -0.0019618508 0.0012612891 0.057823807 0.010053236
0.0065932954 0.0065813665 0.0075734206 0.0139858425 0.0067511178 0.0074696173 0.004999783 0.004223984
0.0021200585 0.068799995 0.0072646225 -0.0035170878 0.008922263 -0.0009658867 0.0016173238 0.0013087402
0.026662096 -0.0068442305 0.010688554 0.0005425556 0.00034036834 -0.0027309456 0.004722729 0.0032536243
-0.0022333965 -0.008165817 -0.0021846173 0.005508084 -0.0027901072 0.005073977 -0.001992546 0.014857456
0.0029941737 0.0015628674 -0.0064496635 0.002281661 0.00014289402 -0.0010735719 0.007434305 -0.00047684158
0.005619891 0.005987217 -0.01820337 -0.003056738 0.010865715 -0.0028223726 0.0086679 -0.017414808
0.0021422228 -0.0004937501 0.0029701255 -0.0076650777 0.004716792 8.7504435e-05 0.0017232932 -7.2111594e-05
0.0034103773 -0.0028101592 -0.021755625 0.0055640293 0.0033016521 -0.0036053967 0.00988726 -0.0034101696
-0.022414692 0.00063073175 0.12257049 0.099697575 0.0033753924 -0.0024022923 0.00045727962 0.007563508
-0.0039627953 -0.013269189 -0.00023021262 -0.0009500567 0.0053081503 -0.010197972 -0.015824463 0.0014833166
-0.006207934 -0.0046141627 -0.0050524436 0.0025871322 -0.0003376292 0.0010539319 -0.001582438 -0.0024935238
-0.0056576696 0.0027153527 0.003035274 -0.0021345904 0.0012099113 -6.7564266e-05 9.938441e-13 -0.0010679826
0.024530653 -3.201402e-05 0.018811626 -0.012493443 -0.0001221617 -0.009588092 0.0009858141 -0.0010427418
0.056328427 0.0051573617 -0.0021777765 0.009217245 0.01530123 0.0014954904 -0.0028994074 0.010656696
-0.012082415 -0.0020171176 0.017197283 -0.0057527833 0.03215508 -0.018934691 0.022818578 -4.5662648e-05
-0.0012872929 -0.0010926656 0.010445567 -0.00014032077 0.020237429 -0.008194098 -0.011272045 -0.008335285
-0.009195723 0.003380604 0.006257631 -0.004442397 0.00031834393 0.0012577646 0.01969434 0.0010307883
0.00657418 -0.002563785 -0.0021000432 -0.011861114 0.0009681426 -0.0031348784 0.0030230102 0.0011731755
0.0026425312 -0.004377221 0.00051926944 -0.017806206 -0.0077006645 0.00031039907 -0.010095178 0.0034104732
-0.007991501 0.0060463087 -0.00026916194 -0.002674813 0.0065296274 0.0060010576 0.0068908287 0.0045374422
0.007824912 -0.0014174021 0.021045096 0.0017988698 -0.016010754 0.00684088 0.0008765443 0.02306949
0.0037803529 0.018070577 -1.9756102e-05 -0.011435864 0.007309925 -0.0053041754 -0.0006297741 0.0039613615
0.0048845145 0.017315004 0.004905333 -0.000177856 -0.0065149767 0.00011406633 0.00048703013 0.0059401295
0.023161333 0.015487466 -0.0003690989 0.00019195872 0.0018289275 0.0083146505 0.011841868 -0.012634698
0.0025346372 0.00637079 0.000667029 0.016243303 0.0021666924 -0.0020985052 0.004202718 0.04538734
0.008845357 0.0016356771 -0.0008944046 -0.0058620186 -0.006604281 0.0041091144 0.037545938 0.0015391774
0.0024030444 -0.0033649444 -0.008180887 -0.007867318 -0.004469935 0.16197461 0.012048561 -0.011857364
00000000: 6003 913d d412 093d 679b f53c 5077 523a
00000010: 551d 2d3c 0852 a63c d2a9 f43c 9766 203b
00000020: c66e d0ba 497a debb 978a 333c 039c 163c
00000030: 0fc4 32bb d198 043c dbbe 483b f286 a8bc
00000040: b96e 763d f5fd 59bc 668f 3c3c 1300 73bb
00000050: c317 273b 7524 c4bb d839 2f3b 7184 1f3c
00000060: 50da 403d 571d 5ebc 357c 40bc 2684 38bb
00000070: 24e0 e4ba 75b3 433b afce 033a 7190 3c3c
00000080: 34dd 393b 6f4f 823d e724 553a 1227 3f3d
00000090: 6592 00bb d751 a53a a8d8 6c3d 54b6 243c
000000a0: 920c d83b 81a8 d73b 752a f83b e024 653c
000000b0: 7b38 dd3b b1c3 f43b 38d5 a33b 5969 8a3b
000000c0: aef0 0a3b 03e7 8c3d 120c ee3b f17e 66bb
000000d0: af2e 123c 8f33 7dba 62fc d33a 098a ab3a
000000e0: 786a da3c 9145 e0bb 0b1f 2f3c 4a3a 0e3a
000000f0: 7773 b239 aaf9 32bb 1fc1 9a3b c23a 553b
00000100: 2d5e 12bb ebc9 05bc cc2b 0fbb 287d b43b
00000110: 3bda 36bb 9b43 a63b 6095 02bb b06c 733c
00000120: e639 443b 21d9 cc3a b357 d3bb eb87 153b
00000130: d2d5 1539 18b7 8cba 789b f33b 9800 fab9
00000140: 1027 b83b 6b30 c43b 3c1f 95bc 8e53 48bb
00000150: 1d06 323c 8ef7 38bb cf03 0e3c 80a9 8ebc
00000160: 8964 0c3b 026f 01ba 70a6 423b 552b fbbb
00000170: 528f 9a3b 9682 b738 20e0 e13a 9e3a 97b8
00000180: a380 5f3b a62a 38bb da38 b2bc 7652 b63b
00000190: 8860 583b 8548 6cbb 2dfe 213c 277d 5fbb
000001a0: 049f b7bc b157 253a 3d06 fb3d 3e2e cc3d
000001b0: b035 5d3b c76f 1dbb 08bf ef39 4ed7 f73b
000001c0: 56da 81bb 0367 59bc 3b65 71b9 3a0d 79ba
000001d0: feef ad3b 6515 27bc 4ea2 81bc d96b c23a
000001e0: ed6b cbbb 6732 97bb f88e a5bb e08c 293b
000001f0: d303 b1b9 1624 8a3a cf69 cfba 636a 23bb
00000200: f963 b9bb 0ff4 313b 73eb 463b 7ce4 0bbb
00000210: e395 9e3a 4ab1 8db8 02df 8b2b 8dfb 8bba
00000220: 82f4 c83c cb46 06b8 d71a 9a3c 4cb1 4cbc
00000230: 8818 00b9 5f17 1dbc 6f36 813a 9cac 88ba
00000240: a3b8 663d 16ff a83b 07b9 0ebb ed03 173c
00000250: 03b2 7a3c 5504 c43a fc03 3ebb 6c99 2e3c
00000260: 52f5 45bc 9e31 04bb 51e1 8c3c d881 bcbb
00000270: 0cb5 033d ed1c 9bbc 07ee ba3c e585 3fb8
00000280: 62ba a8ba c637 8fba e223 2b3c 1223 13b9
00000290: f7c8 a53c 8a40 06bc 62ae 38bc b890 08bc
000002a0: a8a9 16bc 208d 5d3b d00c cd3b 8791 91bb
000002b0: 66e7 a639 94db a43a 0656 a13c 841b 873a
000002c0: 386c d73b 2d05 28bb e1a0 09bb 1e55 42bc
000002d0: f3ca 7d3a 8872 4dbb b21d 463b 3dc5 993a
000002e0: 512e 2d3b cb6e 8fbb 951f 083a 52de 91bc
000002f0: db55 fcbb 0fbd a239 3f66 25bc 3f82 5f3b
00000300: c9ee 02bc 1d20 c63b 4e1e 8db9 ea4b 2fbb
00000310: 7cf6 d53b 85a4 c43b 76cc e13b d3ae 943b
00000320: 0f34 003c 1fc8 b9ba c466 ac3c 0ec8 eb3a
00000330: fc28 83bc 7629 e03b e4c7 653a 3afc bc3c
00000340: ccbf 773b bf08 943c e8b9 a5b7 7d5d 3bbc
00000350: 1888 ef3b a6ce adbb 6d17 25ba 4fce 813b
00000360: 470e a03b 32d8 8d3c eabc a03b db7e 3ab9
00000370: 967b d5bb e536 ef38 1458 ff39 6ba5 c23b
00000380: d6bc bd3c 24bf 7d3c 9e83 c1b9 8748 4939
00000390: a0b8 ef3a 2c3a 083c 6504 423c c401 4fbc
000003a0: 281c 263b 0fc2 d03b 8fdb 2e3a ad10 853c
000003b0: 11ff 0d3b 1387 09bb f4b6 893b 13e8 393d
000003c0: 1eec 103c 3764 d63a 7a76 6aba 2d16 c0bb
000003d0: b968 d8bb c0a5 863b c5c9 193d 39be c93a
000003e0: 657c 1d3b 6686 5cbb 2109 06bc ece5 00bc
000003f0: 8878 92bb acdc 253e 5467 453c 6445 42bc

fc1.bias f4 [16]
0.9722278 1.2013183 -0.2294253 1.1820017 0.37410218 1.5954455 -0.4720409 1.6140821
1.4346211 1.7154186 -0.40567616 0.53414255 1.7038804 1.6895692 1.648225 -0.56506604
00000000: ece3 783f ccc4 993f 77ee 6abe d54b 973f
00000010: 528a bf3e 8f37 cc3f 58af f1be 3e9a ce3f
00000020: aaa1 b73f d692 db3f c9b4 cfbe 91bd 083f
00000030: c118 da3f ce43 d83f 09f9 d23f 2ba8 10bf

fc2.weight f4 [3706, 16]
0.0439714 0.03205243 0.14015476 0.026290586 0.13070878 0.0318304 0.044736855 0.024384892
0.020729402 0.03533274 0.018409023 0.13523269 0.039164733 0.035473913 0.026617927 0.26510617
0.0073548714 0.012160908 0.048495248 0.008952221 0.26699057 0.02489742 0.028847063 0.022092624
0.01445088 0.026337033 -0.00540695 0.14956343 0.02886811 0.02837405 0.02174457 0.20410694
-0.017491154 -0.006926226 0.036379054 -0.008800045 0.2862128 0.02785501 0.04977972 0.026063135
0.01112223 0.041534714 -0.019342046 0.04330593 0.038435858 0.037601724 0.0304843 0.08770279
0.035199024 0.032240044 0.014012434 0.031025626 0.267149 0.026536621 -0.09526887 0.026067007
0.028528944 0.025418777 0.046472684 0.22576009 0.025474882 0.025950273 0.026196769 -0.0031170503
0.007116713 0.006016122 0.14688702 0.010615975 0.36305708 0.021590505 -0.026986688 0.020361189
0.015377715 0.024194114 0.011870567 0.0892675 0.02343423 0.023254672 0.021406116 0.051930983
-0.004821821 0.0092500765 0.12505105 0.0037916533 0.08829589 0.046612035 0.16855972 0.052622665
0.02959458 0.06729108 -0.030804764 0.13112818 0.06485305 0.063430615 0.056438383 -0.03619817
0.0008717105 0.011649984 0.06459183 0.014009109 0.23852457 0.047178686 -0.06509639 0.044442296
0.030164622 0.05614593 -0.015332021 0.14846627 0.054452676 0.05536175 0.045302074 -0.0036209004
0.02740238 0.028342616 0.10365063 0.028336916 0.24031167 0.031824175 0.031352714 0.032076582
0.029560888 0.0336247 0.052550774 0.12867689 0.0334286 0.032924846 0.032501396 -0.008879715
-0.008618397 0.0060865125 0.070674844 0.0010749609 0.36456114 0.014769375 0.16094021 0.0175663
0.009103345 0.020718323 -0.058635242 0.03448006 0.022336759 0.020559646 0.018432153 -0.0027920718
-0.00824796 0.020178054 0.014164575 0.009325858 0.23377174 0.033130858 0.13312794 0.03521572
0.02316019 0.042018753 -0.0009134577 0.029864082 0.044312734 0.044345926 0.036363974 0.15968378
-0.018703984 -0.0027187678 0.08620463 -0.0033151875 0.23710133 0.037200212 -0.021620417 0.03581285
0.01686174 0.049660172 -0.023333643 0.085549854 0.050811984 0.04927528 0.038574863 0.14952649
0.03711233 0.032161754 -0.025324564 0.035222113 0.33353534 0.02888448 0.01444388 0.028181285
0.030240599 0.02670479 0.017208314 0.13004471 0.026728172 0.025552263 0.027720096 -0.028031593
0.029362382 0.025764903 0.14822525 0.026380485 0.2506684 0.029232908 -0.079076946 0.027665433
0.026590545 0.029939393 0.05003021 0.14510535 0.029693803 0.029669877 0.028054457 0.080092244
0.030693619 0.03303829 0.15855776 0.03507882 0.030104514 0.046422772 -0.055530243 0.048156243
0.041991327 0.051917505 0.027100902 0.14106327 0.050454292 0.04995067 0.04976047 0.05959215
0.0142963715 0.012319938 -0.14915036 0.012197806 0.48190054 0.014026164 -0.019494615 0.013640345
0.012523312 0.01518765 0.023899896 0.23839936 0.015253581 0.0152010005 0.013604081 0.11825099
0.023228783 0.027110389 0.076777756 0.025069032 0.10456544 0.037191752 0.24408165 0.03848022
0.031677146 0.0434701 0.07506367 0.14842418 0.043365795 0.042642534 0.03923884 -0.05412356
00000000: 5b1b 343d 6949 033d bb84 0f3e 5b5f d73c
00000010: 86d8 053e 9860 023d fe3d 373d d3c2 c73c
00000020: b5d0 a93c 10b9 103d 85ce 963c 707a 0a3e
00000030: 336b 203d 184d 113d d70d da3c ffbb 873e
00000040: 2201 f13b 8c3e 473c f4a2 463d 56ac 123c
00000050: fdb2 883e adf5 cb3c ad50 ec3c 97fb b43c
00000060: 62c3 6c3c c3c0 d73c c92c b1bb 2827 193e
00000070: d17c ec3c b270 e83c ab21 b23c 6901 513e
00000080: 9c49 8fbc 65f5 e2bb 3402 153d 102e 10bc
00000090: 7c8a 923e 3130 e43c d2e5 4b3d 5b82 d53c
000000a0: 043a 363c 4e20 2a3d 3673 9ebc 8f61 313d
000000b0: eb6e 1d3d 4404 1a3d 36ba f93c 859d b33d
000000c0: da2c 103d 230e 043d 6894 653c 7429 fe3c
000000d0: c1c7 883e 5463 d93c 531c c3bd 7a8a d53c
000000e0: 88b5 e93c 0a3b d03c 245a 3e3d a72d 673e
000000f0: b3b0 d03c ab95 d43c 9b9a d63c 6d47 4cbb
00000100: 5133 e93b e422 c53b 8d69 163e a0ee 2d3c
00000110: 9ee2 b93e 92de b03c 3013 ddbc 82cc a63c
00000120: d0f2 7b3c bc32 c63c c47c 423c e1d1 b63d
00000130: 24f9 bf3c 9580 be3c e15b af3c 95b5 543d
00000140: 5e00 9ebb a28d 173c 620d 003e 637d 783b
00000150: 7ad4 b43d 43ec 3e3d eb9a 2c3e dd8a 573d
00000160: 5570 f23c e8cf 893d 465a fcbc 7746 063e
00000170: add1 843d e9e7 813d ef2b 673d 8844 14bd
00000180: 8083 643a 93df 3e3c b948 843d 7686 653c
00000190: c93f 743e 703e 413d 4251 85bd 2009 363d
000001a0: cc1b f73c 46f9 653d 2833 7bbc 8b07 183e
000001b0: c509 5f3d 01c3 623d ab8e 393d a14c 6dbb
000001c0: f57a e03c c62e e83c c846 d43d d222 e83c
000001d0: 4314 763e 115a 023d b46b 003d bc62 033d
000001e0: ad29 f23c 0eba 093d 7b3f 573d e0c3 033e
000001f0: 6dec 083d 34dc 063d 2f20 053d 397c 11bc
00000200: 2d34 0dbc 5e71 c73b f9bd 903d b4e5 8c3a
00000210: c2a7 ba3e 40fb 713c 83cd 243e 34e7 8f3c
00000220: 3226 153c 79b9 a93c 822b 70bd f73a 0d3d
00000230: 94fb b63c b46c a83c 07ff 963c 31fb 36bb
00000240: 7422 07bc 724c a53c 8912 683c 7ccb 183c
00000250: dc61 6f3e 39b4 073d b152 083e 5c3e 103d
00000260: 70ba bd3c db1b 2c3d 1c75 6fba 85a5 f43c
00000270: 4581 353d 13a4 353d 64f2 143d 2584 233e
00000280: 1939 99bc 5b2d 32bb 0e8c b03d 9e43 59bb
00000290: b1ca 723e 405f 183d 4d1d b1bc 7fb0 123d
000002a0: a221 8a3c 7768 4b3d 3226 bfbc c334 af3d
000002b0: 3a20 503d e0d4 493d ad00 1e3d 791d 193e
000002c0: 1903 183d 0bbc 033d 7675 cfbc 1045 103d
000002d0: 25c5 aa3e 259f ec3c 06a6 6c3c 70dc e63c
000002e0: 22bb f73c 01c4 da3c 73f8 8c3c 712a 053e
000002f0: 0af5 da3c fb52 d13c 4115 e33c 83a2 e5bc
00000300: 6189 f03c eb10 d33c 5cc8 173e e31b d83c
00000310: 9c57 803e da79 ef3c 18f3 a1bd 9ea2 e23c
00000320: 6ad4 d93c 7543 f53c 7aec 4c3d 7f96 143e
00000330: 6b40 f33c 3e0e f33c 76d2 e53c 6707 a43d
00000340: 2f71 fb3c 2853 073d f75c 223e cfae 0f3d
00000350: be9d f63c ce25 3e3d ae73 63bd 7b3f 453d
00000360: 19ff 2b3d 73a7 543d b602 de3c e472 103e
00000370: 29a9 4e3d 1399 4c3d a2d1 4b3d e616 743d
00000380: 543b 6a3c 91d9 493c dfba 18be 4ed9 473c
00000390: abbb f63e ffcd 653c 2cb3 9fbc c17b 5f3c
000003a0: 942e 4d3c 9fd5 783c b7c9 c33c f61e 743e
000003b0: 28ea 793c 9e0d 793c a7e3 5e3c 932d f23d
000003c0: 4a4a be3c 9b16 de3c a83d 9d3d 925d cd3c
000003d0: 6826 d63d 6156 183d 8af0 793e 6f9d 1d3d
000003e0: e5bf 013d b40d 323d fbba 993d 82fc 173e
000003f0: 55a0 313d f0a9 2e3d e8b8 203d abb0 5dbd

fc2.bias f4 [3706]
0.13146491 0.08462063 0.13348548 0.023735952 0.04045721 0.17255434 0.124040954 0.047707077
0.053750876 0.101364754 0.14968295 0.024401879 0.06423829 0.07951398 0.02361426 0.08738438
0.16298962 0.053102143 0.070633315 0.015394786 0.07948337 0.050586138 0.052453913 0.065594435
0.030893913 0.060198195 0.024741847 0.08661937 0.094078004 0.059861917 0.028157428 0.023265326
0.039298635 0.017310064 0.058717303 0.10855831 0.07293918 0.045392174 0.0768285 0.08357302
0.0921659 0.055957697 0.06582044 0.0836804 0.049227726 0.047389686 0.13896348 0.045516692
0.047602497 0.16488193 0.08546593 0.07428328 0.0481216 0.032688897 0.03070488 0.035160687
0.13447738 0.031017719 0.04378595 0.06714061 0.06846994 0.05088861 0.042137545 0.018871648
0.03531991 0.037353043 0.057847444 0.06965588 0.12615879 0.012054311 0.022485377 0.099255025
0.050895516 0.021893695 0.05109626 0.048939623 0.037954416 0.034521896 0.06845038 0.037729677
0.07404842 0.054146156 0.066877976 0.057710297 0.08114117 0.021688923 0.050911646 0.040836345
0.04906537 0.007021216 0.006328887 0.04846224 0.070536114 0.055172715 0.057564463 0.028551105
0.03756883 0.048369564 0.063377924 0.014069048 0.04076199 0.13565706 0.064314105 0.07201772
0.024883045 0.020961387 0.15019959 0.20336471 0.09207051 0.030932814 0.04678664 0.07338905
0.04924816 0.07979141 0.032635644 0.040084798 0.06350452 0.0406302 0.08242352 0.05529458
0.042418946 0.03841603 0.019384097 0.061826773 0.041719805 0.07788944 0.053293064 0.020395897
0.02063322 0.07212414 0.021771165 0.041277513 0.045689303 0.03301063 1.647e-42 0.04720517
0.106369585 0.015414637 0.081665725 0.09816119 0.06352246 0.034491107 0.047011502 0.059842672
0.096514724 0.102420986 0.01783696 0.002137956 0.06882002 0.04341385 0.054908752 0.019325929
0.024678152 0.050457686 0.0468773 0.10180144 0.15265523 0.030097935 0.1153088 0.096777715
0.031411733 0.055722676 0.047245078 0.0032163984 0.09463844 0.047027145 0.050285835 0.020733515
0.019753106 0.09891957 0.067417644 -0.0058158003 0.055564616 0.036735103 0.09762732 0.015746543
0.039507248 0.04318267 0.055670276 0.041945048 0.046325665 0.029346894 -0.031062555 0.05065421
0.062844485 0.027716422 0.041643534 0.029311748 0.08597376 0.03439913 0.029564653 0.054581847
0.0402171 0.06849306 0.02716566 0.024933174 0.05563364 0.05611649 0.05702071 0.03302093
0.062320624 0.061863504 0.0433104 0.0383517 0.04075856 0.053842247 0.031659678 0.089327544
0.061603613 0.07497253 0.11215882 0.02788198 0.024690948 0.045817032 0.020699682 0.094034255
0.15472697 0.05118575 0.07862961 0.029053545 0.02456642 0.017670415 0.036457505 0.061877564
0.116204455 0.08835079 0.102713205 -0.0023588699 0.09185947 0.11487057 0.05869419 0.023057315
0.04336524 0.03856765 0.032816894 0.06263548 0.028218156 0.02049748 0.061652023 0.14646043
0.11836701 0.0208461 0.06706704 0.013284126 0.052860964 0.0989526 0.103089094 0.04478553
0.021854892 0.029215477 0.072605565 0.027168285 0.030483881 0.12114408 0.04741243 0.06183962
00000000: bd9e 063e 954d ad3d 6bb0 083e e671 c23c
00000010: 76b6 253d 16b2 303e 2f09 fe3d 7f68 433d
00000020: e129 5c3d 5398 cf3d 7d46 193e 73e6 c73c
00000030: 5d8f 833d 3ad8 a23d b172 c13c 95f6 b23d
00000040: c0e6 263e a281 593d 33a8 903d 6a3a 7c3c
00000050: 2dc8 a23d 6933 4f3d ead9 563d 6056 863d
00000060: 3b15 fd3c 6292 763d 6aaf ca3c 7f65 b13d
00000070: f8ab c03d c531 753d 68aa e63c ed96 be3c
00000080: 9bf7 203d d6cd 8d3c 8e81 703d d253 de3d
00000090: 2361 953d 25ed 393d 4358 9d3d 5528 ab3d
000000a0: 7ac1 bc3d e633 653d decc 863d a160 ab3d
000000b0: 03a3 493d b01b 423d 714c 0e3e b66f 3a3d
000000c0: d6fa 423d cfd6 283e c308 af3d d521 983d
000000d0: 281b 453d cbe4 053d cd88 fb3c a704 103d
000000e0: 70b4 093e df18 fe3c e558 333d 0481 893d
000000f0: f839 8c3d 9370 503d 6b98 2c3d b798 9a3c
00000100: 9cab 103d 81ff 183d 71f1 6c3d bea7 8e3d
00000110: c52f 013e 727f 453c 4133 b83c 3846 cb3d
00000120: d177 503d 685a b33c 504a 513d ea74 483d
00000130: 1776 1b3d d566 0d3d b62f 8c3d 6f8a 1a3d
00000140: b3a6 973d 5cc8 5d3d 52f7 883d a261 6c3d
00000150: 572d a63d f8ac b13c bb88 503d 0344 273d
00000160: c5f8 483d 3b12 e63b 8d62 cf3b 5780 463d
00000170: 3d75 903d c9fc 613d b7c8 6b3d 02e4 e93c
00000180: c6e1 193d 2a1f 463d 49cc 813d dd81 663c
00000190: 0bf6 263d afe9 0a3e 1db7 833d 077e 933d
000001a0: 87d7 cb3c 37b7 ab3c eccd 193e d73e 503e
000001b0: 778f bc3d d066 fd3c 59a3 3f3d 004d 963d
000001c0: 70b8 493d ae69 a33d f4ac 053d f52f 243d
000001d0: a80e 823d da6b 263d aacd a83d 927c 623d
000001e0: 7dbf 2d3d 215a 1d3d 66cb 9e3c 123e 7d3d
000001f0: 63e2 2a3d 8084 9f3d d449 5a3d 4c15 a73c
00000200: 0007 a93c d2b5 933d 7159 b23c 9c12 293d
00000210: b524 3b3d 2836 073d 9704 0000 355a 413d
00000220: 4cd8 d93d ac8d 7c3c 5c40 a73d bc08 c93d
00000230: 1018 823d 8c46 0d3d 228f 403d 971d 753d
00000240: 83a9 c53d 18c2 d13d d11e 923c f31c 0c3b
00000250: 83f1 8c3d b9d2 313d 00e8 603d 6951 9e3c
00000260: d629 ca3c b8ac 4e3d 6902 403d 467d d03d
00000270: a751 1c3e f28f f63c 0527 ec3d 6533 c63d
00000280: 97a9 003d 763d 643d 0e84 413d 36ca 523b
00000290: ccd1 c13d 899f 403d 85f8 4d3d 55d9 a93c
000002a0: 44d1 a13c 5896 ca3d 4312 8a3d 7892 bebb
000002b0: b997 633d 8c77 163d d5f0 c73d e5fe 803c
000002c0: 5ad2 213d 50e0 303d 8406 643d 92ce 2b3d
000002d0: fbbf 3d3d e668 f03c e676 febc ca7a 4f3d
000002e0: 9cb4 803d 8d0d e33c 6992 2a3d 311f f03c
000002f0: 0313 b03d 1ae6 0c3d 9231 f23c 3791 5f3d
00000300: b0ba 243d 1746 8c3d 858a de3c a840 cc3c
00000310: 1ae0 633d 68da 653d 8c8e 693d f440 073d
00000320: e943 7f3d 9664 7d3d 3f66 313d ac16 1d3d
00000330: 73f2 263d b089 5c3d 94ad 013d 5cf1 b63d
00000340: 1254 7c3d 338b 993d 86b3 e53d c068 e43c
00000350: ac44 ca3c a4aa 3b3d 6192 a93c 0895 c03d
00000360: bf70 1e3e 26a8 513d 9008 a13d b301 ee3c
00000370: 843f c93c 8cc1 903c 7754 153d 5473 7d3d
00000380: 9afc ed3d 42f1 b43d 4d5b d23d 4597 1abb
00000390: d120 bc3d 4341 eb3d 5269 703d b2e2 bc3c
000003a0: c09f 313d 1df9 1d3d 026b 063d 0847 803d
000003b0: c329 e73c 55ea a73c d586 7c3d b9f9 153e
000003c0: 676a f23d 71c5 aa3c 725a 893d aaa5 593c
000003d0: bd84 583d a9a7 ca3d 6020 d33d 0871 373d
000003e0: 0809 b33c 4c55 ef3c 3ab2 943d 0690 de3c
000003f0: 55b9 f93c 631a f83d 8933 423d 8b4b 7d3d
