ae_100k.pt (torch, 219295 bytes, 4 tensors)

fc1.weight f4 [16, 1650]
000000 dc 41 a8 bd b2 34 b7 3d 28 55 a2 bc e9 24 68 3d
       -0.08215687 0.08945598 -0.019815996 0.056675825
000010 fa 75 0a 3e 47 a9 10 bd d8 e1 71 be 78 40 81 3c
       0.13521567 -0.035317685 -0.23621309 0.015777811
000020 2d 31 55 bc a8 34 b0 bc c9 6f f9 3c 2d 6a f5 bc
       -0.013012213 -0.021509483 0.030448811 -0.029957855
000030 71 6a a0 bd 57 45 94 bd 84 ba cc 3d 97 e0 02 3c
       -0.07832802 -0.07239788 0.099965125 0.007988117
000040 fa da b3 bd 5e e1 85 bc 4d 0a 5b bd eb d6 d1 bb
       -0.08782001 -0.016342815 -0.05347662 -0.006403794
000050 d5 60 32 3d eb a7 f6 bc 4c f5 8d bb 3b ff ab bd
       0.043549377 -0.030109366 -0.00433222 -0.08398291
000060 ea 3e 01 bd b4 7f 90 3d e6 be ba 3b 2f ca d1 bd
       -0.03155414 0.070556074 0.0056990264 -0.102436416
000070 a1 5e 3e 3d cd d7 28 3d 62 e9 d6 3d 0d 80 69 3d
       0.046476964 0.04122143 0.10493733 0.057006884
000080 b0 e9 1c 3d 89 4c 90 3c 07 50 64 3d 28 fa 5b 3d
       0.0383088 0.01761462 0.055740383 0.053705364
000090 5a a0 d3 bc ee 29 40 3d 5f e7 4f 3d 17 47 1f bd
       -0.025833298 0.046914987 0.050757762 -0.038886156
0000a0 43 2c d2 bc 94 87 89 bd f4 70 7a ba 35 28 05 3e
       -0.025655871 -0.067153126 -0.00095535745 0.13003619
0000b0 f3 1c d9 bc 6d 21 db bc 73 56 49 3d da 20 0b bd
       -0.026503062 -0.026749337 0.04915471 -0.033966877
0000c0 c9 76 58 3d 01 bd a0 be 06 0f 64 3d c1 24 03 3c
       0.052847657 -0.313942 0.05567839 0.008004368
0000d0 44 fb 2b bd d5 3b 9f 3c 0d 00 7a bc 3f 9e d6 bd
       -0.041987672 0.01943771 -0.015258801 -0.10479402
0000e0 68 6b a6 3b 7f 6f 07 be de 88 e8 bc c0 6f 3d 3d
       0.005078722 -0.13226126 -0.028385576 0.04624915
0000f0 8a 62 c1 3c 0e 82 65 bd 8c ec 29 3d 3e 45 81 3d
       0.023606557 -0.056032233 0.041485354 0.06312035
000100 8e 60 5d 3d a7 79 64 3d 24 17 58 3d 66 ad 1c be
       0.05404716 0.05578008 0.052756444 -0.15300521
000110 ca 69 08 3e 0d f1 2b 3d 53 b5 aa 3d bd 93 9f bc
       0.13321605 0.04197793 0.08335366 -0.019479627
000120 42 76 18 3d 24 5d 92 bc 62 44 be 3b 1e 5c e3 bc
       0.037222154 -0.017866679 0.0058064917 -0.027753886
000130 74 d8 b4 bd 6e 6e 03 3d ba 39 11 bd c8 cf b3 bd
       -0.08830348 0.032087736 -0.035455443 -0.087798655
000140 62 d2 3e 3d 9f a9 05 3c 4c f2 65 bd 39 94 11 3d
       0.046587355 0.008158117 -0.056139275 0.035541747
000150 c8 43 89 3c 6c 25 2a 3c 46 7c 76 3c 81 7b 90 3d
       0.016755953 0.010384899 0.0150442775 0.070548065
000160 5f 13 15 be 14 01 92 bd 73 e5 8d bd fb 16 f8 3c
       -0.1455817 -0.07129112 -0.069285296 0.030284395
000170 d0 ba 13 bd 22 3e b7 3d 70 53 12 3e 8e a9 fe bc
       -0.03606683 0.08947398 0.14289641 -0.03108671
000180 83 d0 db 3d 04 cd 7c 3d 99 9c ac bc 99 27 e6 bd
       0.1073313 0.061718956 -0.021070765 -0.112380214
000190 61 91 e9 bd 29 92 f1 3d 5d 2c d0 bc 2d d8 ee bc
       -0.11404682 0.11795456 -0.025411779 -0.029155815
0001a0 68 1d 8b bc b3 e2 2e 3d f9 88 5d 3d 71 a8 90 bd
       -0.016981795 0.042696666 0.054085705 -0.07063378
0001b0 e0 8a 18 bd 42 14 39 bb 7c f3 e3 bc aa 49 7a 3c
       -0.037241817 -0.0028240834 -0.027826063 0.015276352
0001c0 89 ce cb 3c 5e bb 3c 3d 40 52 7a 3c eb 8c 75 3c
       0.024878757 0.046077125 0.015278399 0.014987211
0001d0 ce 5c 2f 3d 70 dc 4b 3e 86 e8 1a bb b2 a3 9a 3d
       0.042813115 0.19908309 -0.002363713 0.07550754
0001e0 34 98 1c 3e b6 a3 5b be 1e e2 09 bd e8 ba 09 be
       0.15292436 -0.2144917 -0.033662908 -0.13450205
0001f0 74 07 af 3d 14 59 9d 3d 9e ef 60 be 4b 78 4e 3d
       0.085463434 0.07683006 -0.21966407 0.05040769
000200 fb bf 8e 3c 4a cb 9c bc 09 bf 50 bd 64 fc f5 3c
       0.017425528 -0.019139905 -0.050963435 0.030027576
000210 1c 17 19 be 33 5e 33 bd 6d d8 05 be d6 a9 05 3a
       -0.14950222 -0.043791007 -0.13070841 0.0005098855
000220 3a 49 1f be 7f 99 c4 3a 84 64 8f 3c d2 85 e1 3c
       -0.15555277 0.0014999359 0.017503984 0.02752963
000230 e5 00 2d 3e 91 ac d4 bc ce 29 b4 3d 14 fd 4c bd
       0.16894872 -0.025961192 0.08797036 -0.05004604
000240 76 e0 86 3c f4 97 45 bc 13 d8 e3 3d 73 9e de 3c
       0.016464453 -0.012060154 0.11125197 0.027175164
000250 9f 97 ef bc 82 bc 8e 3d f6 0f 5c be 18 49 1a 3d
       -0.029247103 0.06969549 -0.21490464 0.037667364
000260 03 21 c7 3c 0f 19 04 be 19 ad 53 3d f4 7c 3f bd
       0.024307733 -0.12900184 0.05167875 -0.046750024
000270 3d 8a 92 bd f1 8b 23 3d 77 10 a3 bd 13 25 96 bd
       -0.07155273 0.03992838 -0.07962125 -0.0733129
000280 a5 aa 24 3d ce d6 22 bd 01 a4 5e 3c 0b 5b 2e 3a
       0.0402018 -0.039755635 0.013588906 0.00066511397
000290 0e 36 ab bc 5c c5 de 3c de df 2b bd 05 7d c2 bc
       -0.020899799 0.027193718 -0.041961543 -0.023741255
0002a0 84 44 77 bc db 00 f5 3d 66 5f e6 bc 42 96 16 be
       -0.015092019 0.11963054 -0.028121661 -0.14705756
0002b0 6d bd c2 bc 26 b4 90 bd 22 f1 0a be 77 73 cc 3c
       -0.023771966 -0.070656106 -0.13568547 0.024957402
0002c0 e6 ff d0 bb 51 28 1d bd 0c 3c 14 be 67 b6 f1 3d
       -0.0063781617 -0.038368527 -0.14476031 0.118023686
0002d0 e3 9e 03 be 93 82 f8 bd ae 4b 79 bd af 7c 14 bd
       -0.12853579 -0.1213428 -0.06086319 -0.03625172
0002e0 37 d3 09 3e ac 5e 3e bd 04 a2 23 bd b6 99 c4 bd
       0.13459478 -0.046477005 -0.039949432 -0.095996305
0002f0 17 e6 12 bc 7a 8c 63 bd ac a7 36 3d 73 17 c6 3b
       -0.0089659905 -0.05555389 0.044593498 0.006045276
000300 2d 51 81 3d 93 36 fb 3d d8 25 3d bd 9b ec 14 3d
       0.06314311 0.122662686 -0.04617867 0.036358457
000310 aa ae c6 3d 1f da 71 3c 70 ec de 3c 95 03 43 be
       0.09701283 0.014761477 0.027212352 -0.19044335
000320 64 d2 27 be 80 d1 15 3e a9 73 09 3d 61 b4 85 3c
       -0.16388851 0.14630699 0.033557568 0.016321363
000330 58 10 ac 3b d5 20 bb bd a6 3a 29 3c 75 33 e1 3d
       0.0052509718 -0.091371216 0.010328924 0.10996143
000340 60 a2 f0 3c 05 7f 83 bb c8 4c ae 3d 88 74 0b bd
       0.029374301 -0.0040129446 0.085107386 -0.03404668
000350 c4 4e 49 3d 68 22 b0 3d 40 a2 c2 3d 94 0c e5 3d
       0.049147382 0.086003125 0.09503603 0.1118404
000360 f7 ad c0 bd ea d0 8a 3d f1 fe 16 bd b6 03 40 3d
       -0.09408181 0.067781284 -0.036864225 0.04687854
000370 40 b9 64 3c c0 43 04 be 26 0f 5f bd 16 8e a6 bd
       0.013960183 -0.1291647 -0.054457806 -0.081325695
000380 eb 68 a7 bd 6e de 87 bd 34 f9 13 3d 51 fa 1e be
       -0.081743084 -0.06634222 0.03612633 -0.15525176
000390 84 c9 f9 3c 63 9d 8b bd 3d 61 46 3d cb 17 cb bc
       0.030491598 -0.068171285 0.048432577 -0.024791619
0003a0 31 21 54 bd 75 ea 37 3e f9 7d eb bd 6b 60 28 3d
       -0.051789466 0.17960532 -0.11498637 0.041107576
0003b0 19 d2 80 3d aa 56 5e bd 9d 0c ba bc 51 cc 14 bd
       0.06290073 -0.054281868 -0.022711093 -0.036327664
0003c0 ee 2b 28 be 87 5e 1d 3b 5d 95 28 3e 14 0a 97 b9
       -0.16423008 0.0024012642 0.16463228 -0.00028808473
0003d0 cf 10 90 bb a4 e8 0c be 85 b6 14 3d f2 55 89 bd
       -0.004396535 -0.1376062 0.036306877 -0.06705846
0003e0 6d 42 9d bd 38 f0 88 bd 08 a2 ab 3c 2a 46 14 3e
       -0.07678685 -0.06686443 0.020951286 0.1447989
0003f0 c8 3e 62 bb ab af 55 3c f2 38 06 3d 40 b7 2f bd
       -0.0034522284 0.013042371 0.03276915 -0.04289937

fc1.bias f4 [16]
000000 60 a8 9b be 78 e9 a3 bd 7c 2b 1a be 8f ef 80 3d
       -0.30401897 -0.08003515 -0.1505565 0.06295692
000010 69 bb 67 be d2 e2 d9 3e 60 d7 81 be c2 65 9f be
       -0.22630085 0.42555863 -0.2535963 -0.31132323
000020 d2 ea da 3d f5 7b b1 3d ca 63 b8 bd 99 e2 20 be
       0.1068932 0.08666221 -0.09003408 -0.1571144
000030 3c eb 9b 3e 6d 53 b8 be 05 52 d3 bd 92 15 91 be
       0.30452907 -0.3600115 -0.10318378 -0.2833677

fc2.weight f4 [1650, 16]
000000 d6 52 74 3c d3 06 c2 3c 07 e4 82 3d 02 c0 b1 3d
       0.014912328 0.023684895 0.06391149 0.08679201
000010 e8 f0 06 3e 5a e4 9e bd 91 a1 1e 3d e0 03 bc 3d
       0.13177836 -0.07758398 0.0387283 0.091804266
000020 22 a0 3c 3e 59 0d 27 bd 08 02 50 3e 6d c3 37 3e
       0.18420461 -0.040784214 0.20313275 0.17945643
000030 f9 a7 67 3c e2 7d 3b 3e 40 46 f9 ba 43 08 2e 3e
       0.014139169 0.18309739 -0.0019018129 0.16995339
000040 77 64 01 3e e3 0d 8f 3d b4 a0 11 3e 67 1d bd 3c
       0.1263598 0.069850706 0.1422146 0.02308531
000050 d5 5d ec 3d c7 e8 de bd 27 c7 b8 3d 7d 1d ed 3d
       0.115413345 -0.108842425 0.0902236 0.1157789
000060 19 59 ae 3d 25 9d 33 3d 28 71 fa 3c 6b d9 ae 3d
       0.08513088 0.043851037 0.030571535 0.08537563
000070 ce 93 1d bd 4a 92 b6 3d 4d 58 fd 3d db 18 0d 3e
       -0.038471036 0.08914621 0.12370358 0.13779013
000080 d8 75 13 3e 2a 15 ee 3d 49 00 68 3d d0 d5 82 3d
       0.14400423 0.116251305 0.056640897 0.06388438
000090 c6 1e 12 3e a9 f0 b8 ba 03 4f 74 3d ed b5 25 3e
       0.14269552 -0.0014109808 0.059645664 0.1618268
0000a0 44 43 4c 3b 01 b1 b2 3d 51 3f db 3d 70 a8 bc 3d
       0.0031168023 0.08725167 0.10705436 0.092118144
0000b0 d1 f5 e2 ba df f5 4c bd e6 22 1b 3e 3b 5b 87 bb
       -0.0017315691 -0.05003917 0.15150031 -0.0041307486
0000c0 0b 6d 9a 3c e7 90 6f 3e 26 ab da 3c 59 c8 7e bc
       0.018850824 0.2339512 0.026692938 -0.015550696
0000d0 39 a9 2d 3d f7 27 22 3b 2e 29 17 3e a2 2f 2d 3d
       0.04239771 0.002474306 0.14761803 0.042281754
0000e0 55 28 0a 3e 7b 85 e9 bb 5b 55 a4 bc 2e ee 12 3e
       0.13491948 -0.007126508 -0.020060232 0.14348671
0000f0 f9 67 04 3d 1b 37 dc 3d d4 d8 3f bd b9 87 58 3e
       0.03232572 0.10752698 -0.046837643 0.21145524
000100 fa e4 52 3e 7f a5 6e bd fe c8 5b 3d 44 48 84 3d
       0.2059516 -0.058263298 0.053658478 0.06459096
000110 4e ba 1a 3e 89 e3 a6 3d 82 a6 c5 3d b6 45 d7 3d
       0.15110132 0.08148868 0.096508995 0.10511343
000120 ae 35 9a 3d 67 0c 08 3d 44 81 7d 3d b3 32 1c 3e
       0.0752977 0.033214953 0.061890855 0.15253715
000130 d4 f3 d8 bc 34 9f 42 bc b3 49 2f 3e a2 34 50 3d
       -0.026483454 -0.011878777 0.17117958 0.050831445
000140 ec 85 b2 3d 7f 8a 60 3d bd a6 02 3d 02 cd 80 3d
       0.0871695 0.05481958 0.031897295 0.06289102
000150 0a e1 2a 3d 41 93 f8 3d c6 d4 a6 3d bc 90 34 3d
       0.04171852 0.121374615 0.08146052 0.044083342
000160 64 d1 d7 3d 61 dd 23 3e 87 fc c8 3d df b5 e6 3d
       0.10537985 0.16002418 0.09813791 0.11265158
000170 fb 07 b3 3d 25 bb 3c 3e 40 a7 04 3d 1d 55 9f bc
       0.087417565 0.18430765 0.032386065 -0.019449765
000180 3a cb 87 bc 95 73 c2 3d f1 73 2b 3e e1 01 bb 3d
       -0.016576398 0.09494702 0.16743447 0.09131218
000190 c8 c8 25 3e b3 8b f7 bd fe 4c 11 3e f5 30 f6 bd
       0.16189873 -0.120871924 0.14189526 -0.120210566
0001a0 06 f8 a4 bd d7 3a 61 bc 4f 71 23 3e 96 52 72 3e
       -0.08055119 -0.013746939 0.15961193 0.23664317
0001b0 b7 71 85 3d da ed a4 3d 26 87 b3 3d 3b 37 03 3e
       0.0651583 0.08053179 0.08766012 0.12814038
0001c0 77 3f d0 3a 30 91 6e 3d 07 69 e0 3d bc 1d fb 3d
       0.0015888055 0.05824393 0.109575324 0.12261531
0001d0 1a 7c b2 3d e2 8e 86 bd 8d b6 3c 3e b7 e4 f7 bc
       0.08715077 -0.065702215 0.18429013 -0.030260427
0001e0 58 a3 29 3e d1 cc 44 3d a8 af 91 ba 21 11 7d 3d
       0.16566217 0.04804689 -0.0011114972 0.061783914
0001f0 f4 5d 0e 3d 8f d8 32 3e 6b c7 7b bc c7 9c bc 3d
       0.03475757 0.17465423 -0.015367369 0.092095904
000200 97 09 40 3d aa 69 75 3c 36 b7 79 bd b7 ea 2a be
       0.046884146 0.014978806 -0.06096574 -0.16691099
000210 f9 d0 92 3e 0b a0 46 3d 24 97 b5 3d be 56 12 bd
       0.28675058 0.048492473 0.088667184 -0.035727255
000220 0c 3a 13 3e 78 e6 78 3e 37 a1 ed 3d 36 80 77 3e
       0.14377612 0.24306667 0.11603015 0.24170002
000230 aa 91 32 3e cb 13 8c 3c ec 61 99 bc 91 14 ce 3d
       0.17438379 0.017099282 -0.01872345 0.100625165
000240 68 d1 d5 bb c4 53 5b 3d 0f a0 22 3e 17 4f 61 3d
       -0.0065252073 0.053546682 0.1588137 0.055007067
000250 1f 61 d2 3d 04 f1 f9 3d 35 2a d6 3d 8e 6d da bd
       0.10272431 0.12204173 0.10457269 -0.10665427
000260 ab e1 40 3e 57 cd af 3d e8 1f 0b 3e 90 9f dc 3d
       0.18836085 0.08584087 0.1358639 0.10772622
000270 2f 4a 04 bc a7 c1 c9 bc 5b ea 80 3d 83 ac cb 3d
       -0.008074327 -0.024628473 0.062947 0.099450134
000280 cb 79 dd 3d 7f 6b 2a 3e 8a 8d c1 bc 49 25 e2 3d
       0.10814246 0.16642569 -0.023627061 0.11042268
000290 47 82 56 3e 7f 42 55 3d ad 11 89 3d ef 77 23 3e
       0.20948134 0.05206537 0.066928245 0.1596372
0002a0 f3 ec bd bd cf fa 14 3e 30 b2 db 3d b2 48 ff 3d
       -0.0927371 0.14548801 0.10727346 0.124650374
0002b0 4b 77 05 3e 13 50 98 bd e5 29 5b 3d 96 70 d2 3c
       0.13033788 -0.07437148 0.05350675 0.02568845
0002c0 2e 53 9d 3d 6a d0 09 3e f1 71 1a 3e 6b 12 ac 3d
       0.07681881 0.1345841 0.15082528 0.084019504
0002d0 5a c2 65 3c c3 5f d9 3d b4 2c 77 3e ac 06 93 3d
       0.014023388 0.10613968 0.24138147 0.07179007
0002e0 e6 0d 06 3d 12 d1 80 3c 62 7b b3 bc 12 de 31 3e
       0.0327281 0.015724692 -0.02190942 0.1736987
0002f0 20 3e 87 3d ff a2 a0 bb d3 83 36 3b 55 24 89 3d
       0.06603646 -0.004902243 0.002784957 0.06696383
000300 55 98 99 3c 51 a9 02 3e 5f 45 ab 3d af e3 98 bc
       0.018749395 0.12759902 0.08362841 -0.018663255
000310 71 49 ed 3d 03 38 1f 3d 48 71 96 3d 08 32 2f bd
       0.115862735 0.038871776 0.073458254 -0.042772323
000320 fd a6 c1 3d 72 c1 51 3e f6 2a d2 3d 75 d3 14 3c
       0.094556786 0.2048395 0.102621004 0.009083618
000330 b9 2b c5 3d f6 de 99 3d 59 de 10 be f9 a0 b0 3d
       0.0962748 0.075132295 -0.14147319 0.08624453
000340 76 a9 b3 3d fc 03 67 3d 0c 74 3e 3c 24 0a 12 3d
       0.087725565 0.056400284 0.011624347 0.035654202
000350 70 69 34 3e 2c e4 1f 3e 23 41 ab 3d 6b e8 05 bd
       0.17618346 0.15614384 0.08362033 -0.032692354
000360 d0 81 ec 3d b5 c0 88 3e 10 87 54 bc 34 72 e0 3d
       0.11548197 0.26709524 -0.012971655 0.109592825
000370 5e c7 b0 3d 36 16 83 3d ff 47 9d bd ed 3b 4f bd
       0.08631776 0.06400721 -0.07679748 -0.05059426
000380 74 1b 37 3e 78 e4 04 bd 10 c9 70 bd e3 37 ac 3d
       0.17881566 -0.032444447 -0.0587855 0.08409097
000390 1d 9c 05 3e 81 56 7f 3d 53 95 16 3e 3c e0 1f 3e
       0.13047834 0.062338356 0.147054 0.15612882
0003a0 0b 8c 50 3d 53 0f fb 3d 75 21 bc bd bc 15 41 3e
       0.050914805 0.12258782 -0.09186069 0.18855947
0003b0 48 50 55 3d 87 09 4d 3d c2 fa 5d 3d 0c dd 04 3d
       0.052078515 0.050057914 0.05419422 0.03243737
0003c0 ab 74 0e bd d8 fc c7 3d b1 1a 07 3e ca d9 a5 bc
       -0.034779232 0.09765023 0.13193776 -0.020245451
0003d0 f8 67 66 3e e5 c8 24 bd b8 70 de 3d ea cf 75 3b
       0.22500598 -0.04023065 0.10861343 0.003750796
0003e0 85 bc aa 3d 57 ea b0 3d 44 94 b9 3d e6 17 0f 3e
       0.083367385 0.08638447 0.090614825 0.1397396
0003f0 18 b9 9e bc 38 bb d3 3d a9 52 c2 bc eb 10 3a 3d
       -0.019375369 0.103384435 -0.023721056 0.04542629

fc2.bias f4 [1650]
000000 d9 f4 c5 3d b7 58 4d 3d 8c af 1d 3d 13 d2 0b 3e
       0.096658416 0.050133433 0.038497493 0.13654356
000010 0c 9d eb 3d b6 b1 bf 3d b1 23 47 3e 8e 35 6e 3e
       0.11504564 0.093600675 0.19447209 0.23262617
000020 04 ac 30 3e 7e 8f 54 3e 51 97 38 3e ba 20 8f 3e
       0.17253119 0.20757863 0.18026473 0.27954656
000030 24 6f 49 3e 5a d3 4f 3e 07 19 59 3e e5 fe d6 3d
       0.19671303 0.20295468 0.21200953 0.10497836
000040 cd 2e 88 3a 1c 71 02 3e e3 e2 1a 3e ab c4 64 3d
       0.0010389924 0.1273846 0.15125613 0.05585162
000050 57 38 ff 3d 40 a2 53 3e 45 24 6a 3e b8 cd c4 3d
       0.12461918 0.20667362 0.22865398 0.0960955
000060 db 13 d9 3d ab f0 df 3d 50 3d d6 3d 0f e6 84 3e
       0.1059949 0.10934576 0.10460913 0.2595677
000070 2f f7 24 3e 4d b5 42 3e fc c5 a4 3d 6a af fc 3d
       0.16109918 0.19014473 0.08045575 0.12338145
000080 06 81 a2 3d 62 74 c6 3d 1e f8 80 3d 91 e5 d4 3d
       0.079347655 0.09690167 0.062973246 0.10395349
000090 9e c5 cd 3d 71 e8 20 3e 15 62 ac 3d cb 54 f2 3d
       0.10047458 0.1571367 0.08417145 0.11832579
0000a0 08 41 7f 3d f1 20 39 3e 9b b6 ee 3d ae b0 86 3d
       0.062317878 0.18078972 0.11655923 0.06576668
0000b0 67 de fd 3d ad 06 f8 3d 3b 73 f3 3d e4 50 6d 3e
       0.123959355 0.12110648 0.11887213 0.23175389
0000c0 0e be b0 3d 62 39 44 3e 42 81 7b 3d b5 00 ff 3d
       0.0863 0.19162515 0.061402567 0.12451307
0000d0 52 1f 75 3d 78 05 c7 3d b7 a6 06 3e 31 9a 3a 3e
       0.059844323 0.0971784 0.13149534 0.18222882
0000e0 d0 e8 14 3e 49 c1 f1 3d 78 c1 36 3e 8b d6 28 3e
       0.14541936 0.11804444 0.1784724 0.16488092
0000f0 80 c9 5e 3e 83 61 2b 3e 48 01 ce 3d b8 65 94 3e
       0.21756554 0.16736417 0.10058838 0.28983855
000100 a0 c5 10 3e d1 af 33 3e 78 00 16 3e b5 a9 18 3e
       0.14137888 0.17547537 0.14648616 0.14908488
000110 c3 c8 5c 3e c2 f8 5f 3e 9c 6a aa 3d f2 86 3e 3d
       0.2156096 0.21872237 0.083211154 0.046515413
000120 d7 21 82 3e bb 24 26 3e 02 dc 06 3e 85 1c ff 3d
       0.25416443 0.16224949 0.13169864 0.124566115
000130 6a 8b 63 3d 9e 3a a8 3d c8 ef 82 3e 92 c6 db 3d
       0.055552877 0.08214305 0.25573564 0.10731234
000140 91 99 f9 3d 38 c1 14 3e e4 10 6d 3e 3d f0 bf 3d
       0.121874936 0.14526832 0.23150975 0.09371994
000150 26 a3 38 3e 0c 88 f2 3d fb 79 24 3e fb d7 b9 3d
       0.18030986 0.11842355 0.16062157 0.09074398
000160 0c fe 81 3e db 54 f7 3c 0d 6e 43 3e c6 19 81 3d
       0.25389135 0.03019183 0.1908495 0.06303744
000170 21 9a 06 3e b8 85 13 3e 14 60 40 3e 23 03 76 3e
       0.13144733 0.14406478 0.18786651 0.24024634
000180 f4 42 0c 3e 67 c4 68 3e ff 22 4e 3e e8 0a 65 3e
       0.13697416 0.22731172 0.20130537 0.22367442
000190 9a 5a 87 3d 8d 96 81 3d 55 65 64 3d eb 7d ad 3d
       0.06609078 0.063275434 0.0557607 0.084712826
0001a0 39 f1 8b 3d e8 10 1c 3e 80 21 f6 3d 14 a7 ed 3d
       0.06833119 0.15240824 0.12018108 0.11604133
0001b0 a4 c4 98 3d 08 2d 11 3d d7 2a 94 3d dc 75 65 3d
       0.07459381 0.035443336 0.072347336 0.056020603
0001c0 d5 4e 29 3e 75 d4 57 3e ca b0 ca 3d c0 c5 10 3e
       0.16533978 0.2107714 0.09897001 0.14137936
0001d0 d4 5e 12 3e e3 c8 cf 3c 50 34 15 3e 0e 2b cb ba
       0.14293987 0.025364345 0.14570737 -0.0015500502
0001e0 d2 b0 f6 3d 5c 5b cf 3c 67 62 e9 3d 0f 2b 85 3e
       0.120454445 0.025312118 0.11395722 0.26009414
0001f0 a0 8e 3d 3e d7 32 f0 3d b3 25 5d 3e d9 c8 0e 3e
       0.18511438 0.11728447 0.21596412 0.13943805
000200 68 eb fa 3d b9 32 38 3d c6 ec 2b 3e 1c 66 09 3e
       0.122519314 0.044970248 0.1678954 0.13417858
000210 6a 07 1b 3e cb 29 79 3e 53 5d 42 3e 7c 27 2b 3e
       0.15139547 0.24332349 0.18980913 0.16714281
000220 cd 5c 68 3e ec 0d 1e 3c 73 b9 be 3d f9 26 e8 3d
       0.2269165 0.009646874 0.093127154 0.113355584
000230 a1 a3 25 3e c4 0a af 3d 13 9c 7f 3e 1d 5c 4d 3e
       0.161757 0.08546975 0.24961881 0.2005467
000240 12 52 0e 3d cf fc d6 3d f1 79 65 3d d4 9b 08 3e
       0.034746237 0.10497438 0.056024496 0.13340694
000250 2d 14 18 3e 37 39 8b 3d 45 e9 14 3e de b8 1e 3e
       0.14851446 0.06798022 0.1454211 0.15500209
000260 af 38 3f 3e 46 77 e3 3d 43 48 13 3e 7f 08 47 3e
       0.18673967 0.11106734 0.14383034 0.19436835
000270 94 e8 0a 3e c5 52 89 3d 1b fd 16 3e cb dd 33 3e
       0.13565284 0.0670524 0.1474499 0.17565076
000280 6c 99 9c 3d ce 4c ae 3d 07 eb af 3d 8d cf 97 3d
       0.076464504 0.08510743 0.0858975 0.07412634
000290 a3 ce 1b 3e 41 46 3e 3e 99 e1 38 3d ca 6f 2a 3e
       0.15215544 0.18581487 0.04513702 0.16644207
0002a0 23 5a 91 3e d1 c5 88 3d f7 21 29 3e 35 42 1c 3e
       0.2838908 0.066783555 0.16516863 0.15259631
0002b0 67 53 8b 3e 72 39 6d 3e ce 39 1e 3e 97 b4 26 3e
       0.27212068 0.23166445 0.15451738 0.16279827
0002c0 55 9f 33 3e 2f a4 96 3e 39 1c 28 3e fe 8e 0b 3e
       0.17541249 0.29422137 0.16417016 0.13628766
0002d0 ff 0e 4a 3e 7b 91 cd 3d 65 36 4d 3e e1 2e 2f 3d
       0.19732283 0.10037514 0.20040281 0.042769317
0002e0 0b c1 52 3e 89 d8 61 3e aa 18 5e 3e 9a 08 e0 3d
       0.20581453 0.22055258 0.21689096 0.109391406
0002f0 5b 1d 26 3e 64 6f b2 3e 2e 3d 75 3e c5 07 8f 3e
       0.16222136 0.3485061 0.2394912 0.27935615
000300 67 07 70 3e 80 e1 3b 3e cb 58 88 3e e4 3e 23 3e
       0.23440324 0.1834774 0.26630244 0.1594196
000310 97 17 28 3e 0d 9b 6d 3e 1e c3 40 3e b0 bc 43 3e
       0.16415249 0.23203678 0.18824431 0.19114947
000320 cb a4 05 3e d4 c8 40 3e d1 cf 4b 3e ea 77 d7 3d
       0.13051145 0.1882661 0.19903494 0.10520919
000330 82 18 53 3e 0f a4 03 3e bd 4c fe 3d 53 80 4e 3e
       0.20614818 0.12855552 0.124169804 0.2016614
000340 ad c9 5c 3e 4c e5 06 3e 96 9a ed 3d 7b 3b 0e 3e
       0.21561308 0.13173407 0.116017506 0.13889877
000350 d6 e6 24 3e c2 68 f0 3d 00 dd 10 3e 67 3e 0c 3e
       0.16103682 0.11738731 0.14146805 0.1369568
000360 c2 c8 a6 3d 2c c4 f0 3d 32 a6 0a 3e 01 fa e5 3d
       0.0814376 0.11756167 0.13539961 0.11229325
000370 75 9c f7 3d 7d 93 82 3e 06 b9 84 3e 79 90 e2 3d
       0.12090389 0.2550315 0.25922412 0.11062712
000380 a9 01 84 3d 87 1c 3c 3e 52 a6 41 3e 03 c2 92 3e
       0.06445629 0.18370257 0.18911102 0.28663644
000390 cd c1 c0 3d 94 03 3e 3e 4c a0 27 3d ed a1 66 3d
       0.094119646 0.18556052 0.040924355 0.05630677
0003a0 13 8d 93 3d 5d 6d f9 3d 6e 20 37 3d 30 cf b6 3d
       0.07204642 0.121790625 0.04470866 0.08926237
0003b0 24 b0 29 3e fc b7 6b 3e f0 d2 46 3e 08 44 75 3c
       0.16571099 0.23019403 0.19416404 0.014969833
0003c0 73 fe 0e 3e 41 39 e9 3d 0d 7a 07 3e fe 02 09 3e
       0.13964252 0.113878734 0.13230152 0.13380048
0003d0 9e c1 4c 3e 60 e5 98 3c 03 a7 22 3d 56 d2 f3 3d
       0.19995734 0.018664062 0.039710056 0.11905353
0003e0 d9 7b 95 3c b4 f1 5c 3e 8a 7d 20 3e bf 21 be 3c
       0.018247532 0.21576577 0.1567289 0.02320945
0003f0 0b 38 20 3e da e7 e7 3c d9 b2 ee 3c 6f 60 08 3e
       0.15646379 0.028308798 0.029138016 0.13318036
