ae_cat_1M.pt (torch, 490655 bytes, 4 tensors)

fc1.weight f4 [16, 3706]
0	0x3dee0084	0.11621192
1	0x3d66a38c	0.056308314
2	0x3d4b0c5f	0.049572345
3	0x3abe78f3	0.0014531895
4	0x3cbfa884	0.023395784
5	0x3d17e1d2	0.037080593
6	0x3d4c6e7e	0.04991006
7	0x3b98e302	0.0046657333
8	0x3bd5516c	0.0065099504
9	0x3c94180b	0.01807787
10	0x3d1e27ff	0.038612362
11	0x3c2ff68b	0.010739933
12	0x3c591ece	0.013251973
13	0x3c04db57	0.008108935
14	0x3b64a273	0.0034886866
15	0xbbf8a27f	-0.0075877304
16	0x3dacba53	0.08433976
17	0xbbd3c154	-0.0064622555
18	0x3ce9d207	0.028542532
19	0x3b1ee53a	0.0024245516
20	0x3cd97733	0.026546096
21	0x3b99bc76	0.0046916557
22	0x3b79a6ef	0.0038093885
23	0x3ceae3e9	0.02867313
24	0x3d0f3871	0.034965936
25	0xbc299902	-0.010351421
26	0xbc0154b4	-0.00789373
27	0xbb16fad6	-0.0023037693
28	0xbba2c0b5	-0.00496682
29	0x3bb3369c	0.0054691564
30	0x3b78808c	0.0037918417
31	0x3cbb8f2e	0.022895422
32	0x3af9177b	0.001900419
33	0x3dc4530e	0.09586154
34	0x3aeb53bf	0.0017954035
35	0x3d66f2f7	0.056384053
36	0x3a9df26d	0.0012050398
37	0x3b853685	0.004065337
38	0x3d3d40b1	0.046204273
39	0x3c093fa9	0.008376994
40	0x3c1020fb	0.008796926
41	0x3ba14365	0.004921364
42	0x3b7e2f9e	0.0038785706
43	0x3ce583c0	0.028016925
44	0x3c686d94	0.014186282
45	0x3c892b33	0.016744232
46	0x3cf84390	0.030305654
47	0x3cd37d3e	0.025816556
48	0x3aecb948	0.0018060589
49	0x3dcee19c	0.10101625
50	0x3b3c2f24	0.0028714621
51	0xbb1093e3	-0.0022060804
52	0x3c38ce79	0.011279696
53	0x37c5b603	2.3568986e-05
54	0x3afbea28	0.0019219564
55	0x3be7005e	0.0070496043
56	0x3d4d77cb	0.05016307
57	0xbbb97443	-0.0056596114
58	0x3cfe3f4b	0.03103604
59	0x3b023b18	0.0019871648
60	0x3cc67f7e	0.024230715
61	0xbb55dd09	-0.0032632968
62	0x3b861745	0.0040921294
63	0x39a2474f	0.00030952177
64	0x3aab1d7e	0.0013055054
65	0xbbf26a29	-0.007397909
66	0xbb2bb851	-0.002620239
67	0xbbb7e0b1	-0.005611502
68	0x3c6b7703	0.014371636
69	0x3bdfc4c9	0.0068288785
70	0xbbbe4727	-0.005806822
71	0x3c8e75f7	0.017390234
72	0x3bfb1aac	0.0076630916
73	0x3adbb7b3	0.0016763121
74	0x3b16cce9	0.002301032
75	0x3b62e9c0	0.003462419
76	0x3b81aaf2	0.003957146
77	0xb902f914	-0.00012490555
78	0x3bc7cd55	0.0060974755
79	0x38cb4aee	9.693751e-05
80	0x3bae76d5	0.0053242245
81	0x3bce6350	0.00629846
82	0xbcc9b69a	-0.024623204
83	0xbb7be5d9	-0.003843656
84	0x3c1555cf	0.009114697
85	0xbb121a42	-0.0022293483
86	0x3c5aee63	0.0133625
87	0xbbeaa05d	-0.00716023
88	0x3aa9b409	0.0012947331
89	0x3b426a4f	0.0029665416
90	0x3b8b6142	0.0042535374
91	0xbbc91933	-0.006137037
92	0x3ceb90b6	0.028755527
93	0xb913f7ba	-0.00014111298
94	0x3ace4fdf	0.0015740356
95	0xb8bafaa8	-8.9158595e-05
96	0x3b2c9b2d	0.002633761
97	0x3b60b53c	0.0034287712
98	0xbc63502c	-0.013874095
99	0x3b876f96	0.004133175
100	0x3b4d9e06	0.0031374707
101	0xbc6be72b	-0.014398376
102	0x3c6008c7	0.013673968
103	0xba85d850	-0.0010211561
104	0xbc29b781	-0.010358692
105	0x3a384e0b	0.0007030672
106	0x3e33614c	0.17517585
107	0x3dbeb810	0.09312451
108	0x3c26b248	0.0101743415
109	0xb9f4b302	-0.00046672678
110	0xba62f8e6	-0.00086583046
111	0x3c54c91f	0.012987404
112	0xbbae9cd4	-0.005328754
113	0xbc1ae511	-0.009454028
114	0xba08d3da	-0.00052195566
115	0xba055e40	-0.00050875917
116	0x3c09d6c6	0.008413022
117	0xbbb37a07	-0.0054771933
118	0xbc92971c	-0.01789432
119	0x3aa4b4a1	0.0012566039
120	0xbc8e4150	-0.017365128
121	0xb90c0a2a	-0.00013355227
122	0xbba2c426	-0.0049672304
123	0x3b30af54	0.0026959972
124	0x39e76104	0.00044132036
125	0x3b1d2cf5	0.0023983095
126	0xbb07d845	-0.0020728272
127	0xbb9395a5	-0.004503923
128	0xbbcd57d7	-0.006266575
129	0x3b3a6258	0.0028439965
130	0x3b355fa1	0.0027675407
131	0xba9d24d8	-0.001198913
132	0x3abdbe52	0.0014476276
133	0x30d2bd23	1.5333267e-09
134	0xb3d218ba	-9.783385e-08
135	0x3b92a896	0.0044756634
136	0x3c8d1d00	0.017225742
137	0xb7ee795b	-2.8428321e-05
138	0x3c4b6423	0.012414011
139	0x3be64a05	0.007027867
140	0x3bd77b0a	0.0065759467
141	0xbc2127dd	-0.009836164
142	0x38da9e34	0.00010424518
143	0x3b49da46	0.0030800267
144	0x3db3fbf7	0.08788293
145	0x3c3190ef	0.0108377775
146	0xbb81bb12	-0.003959068
147	0x3cce1453	0.025156176
148	0x3c682fe0	0.014171571
149	0x3b255c9f	0.0025232208
150	0x3a5584be	0.00081450853
151	0x3c8d6c0c	0.017263435
152	0x3c4891f6	0.012241831
153	0x3af672d9	0.0018802538
154	0x3ccd7eb2	0.025084827
155	0x3c83db90	0.016095906
156	0x3d2d08a5	0.042244572
157	0xbbc10363	-0.0058902963
158	0x3cc764b8	0.024340019
159	0x3cef926e	0.029244628
160	0xbaf3089c	-0.0018541995
161	0x3a4d0e2b	0.00078222406
162	0x3cb970f0	0.02263686
163	0x3bf5c2f2	0.007500046
164	0x3cf26770	0.029590338
165	0xbb225666	-0.0024770736
166	0x3ae4de92	0.0017461351
167	0x3c088b40	0.008333981
168	0xbc0814b6	-0.008305719
169	0x3c42af93	0.0118826805
170	0x3c23f830	0.010007903
171	0x3adc706e	0.0016818175
172	0x39e14d9c	0.00042973168
173	0x3a9a863c	0.0011789273
174	0x3c68c028	0.01420597
175	0x3b8afe7c	0.0042417627
176	0x3bf0e841	0.0073519056
177	0x3ab95268	0.0014138939
178	0x3b3a74d3	0.002845098
179	0x3c4532cb	0.012036036
180	0x3ba39b7a	0.0049928995
181	0xba7d4031	-0.00096607493
182	0x3c0b335c	0.008496132
183	0x3a8007fb	0.0009768003
184	0x3c71e29d	0.0147635015
185	0xba4ec98a	-0.0007888308
186	0x361ed1d4	2.366597e-06
187	0xbc2d2f48	-0.010570355
188	0xbbafbb64	-0.005362915
189	0x3b279b87	0.002557488
190	0x3c8e003c	0.017334096
191	0x3ba86c5e	0.0051398715
192	0x3b805b7b	0.0039171553
193	0x3c704c8c	0.014666688
194	0xb9c2f1fa	-0.0003718285
195	0xbb1057c0	-0.002202496
196	0x3bba11a2	0.0056783715
197	0x3c67706d	0.0141259255
198	0x3c8b44ac	0.017000519
199	0x3b6d2f6f	0.0036191603
200	0x3a9a3454	0.0011764863
201	0x3bcc18fe	0.0062285652
202	0x3d0caa8c	0.034342334
203	0x3b296043	0.002584473
204	0xbc41ff80	-0.011840701
205	0x3bc7f4a8	0.0061021633
206	0x39183e73	0.00014519114
207	0x3cc6b2d1	0.024255188
208	0x3bb091c0	0.0053884685
209	0x3c1bfc7a	0.009520644
210	0x3c23d953	0.010000545
211	0xbbc884b9	-0.0061193374
212	0x3c5226f7	0.012826673
213	0xbb6575bb	-0.00350128
214	0x39c82110	0.00038171606
215	0x3c7edd0a	0.0155556295
216	0xbc05c7ba	-0.008165294
217	0x3d05b9b1	0.032647792
218	0x3c92f2d3	0.017938053
219	0x38ad2559	8.2562394e-05
220	0x3b4c16a8	0.0031141434
221	0x39773232	0.00023574455
222	0x3ba315da	0.00497697
223	0x3c52406f	0.012832745
224	0x3d1ae5d2	0.03781683
225	0x3cbbc00d	0.022918725
226	0x3a84d065	0.0010132907
227	0xba273fdb	-0.00063800596
228	0x3c20af7d	0.009807465
229	0x3ce44817	0.027866406
230	0x3c9013ed	0.017587626
231	0xbb9415e0	-0.0045192093
232	0x3ccc02af	0.024903623
233	0x3c0dbcb5	0.008650948
234	0x3a137022	0.0005624314
235	0x3c868ac5	0.016423592
236	0x3aceab91	0.0015767684
237	0xbabf331e	-0.0014587378
238	0x3b4b175c	0.0030989265
239	0x3d31b6ad	0.043387104
240	0x3cba96cb	0.022776982
241	0xbb80a69c	-0.0039261114
242	0x3b7d0297	0.003860628
243	0xbb07d61f	-0.0020726991
244	0xbae3bdc6	-0.0017375282
245	0x3cd290bd	0.025703782
246	0x3d3b2956	0.045693718
247	0x3ad6c9e3	0.0016387071
248	0x3b99d3a1	0.0046944176
249	0x3bbaf564	0.0057055224
250	0xbae8b850	-0.0017755125
251	0x3c01e0fd	0.007927177
252	0x3b6b60ba	0.0035915808
253	0x3e4a15d6	0.19734892
254	0x3b981776	0.0046414686
255	0x3bb29022	0.005449311

fc1.bias f4 [16]
0	0x3fa23f34	1.2675538
1	0x3fa6e10a	1.3037426
2	0x3fb9978f	1.4499377
3	0x3fdb8952	1.7151282
4	0x3fbd8edd	1.4809223
5	0x3fc44da1	1.533619
6	0x3fbe7b34	1.4881349
7	0x3fd54e07	1.6664437
8	0x3fc3695a	1.5266526
9	0x3e760113	0.24023847
10	0x3d2bf618	0.04198274
11	0x3fab7967	1.3396424
12	0xbf890d34	-1.0707154
13	0x3fccb8aa	1.5993855
14	0x3fcf2e78	1.6186056
15	0x3ff60e5e	1.9223135

fc2.weight f4 [3706, 16]
0	0x3d1dd7cc	0.038535878
1	0x3d145ed2	0.03622324
2	0x3d144c06	0.036205314
3	0x3d4224d8	0.04739842
4	0x3d14ed86	0.036359333
5	0x3d06af8a	0.03288225
6	0x3d105aac	0.03524272
7	0x3d2c0fba	0.042007186
8	0x3d247e10	0.040159285
9	0x3da10359	0.07861967
10	0xbc9073fe	-0.017633434
11	0x3d12f757	0.035880413
12	0x3e3e689b	0.18594591
13	0x3d2e8cb6	0.04261466
14	0x3d2dfba5	0.042476315
15	0x3e63f0d5	0.22259839
16	0x3cf1fefe	0.029540535
17	0x3cf163c0	0.02946651
18	0x3cfa40a5	0.030548403
19	0x3d2daa21	0.042398576
20	0x3d047de6	0.03234663
21	0x3d060878	0.03272292
22	0x3d06e062	0.032928832
23	0x3d204f61	0.0391382
24	0x3d13fa8f	0.036127623
25	0x3ce749a0	0.02823335
26	0xbe159394	-0.14607078
27	0x3cf9eba9	0.03050788
28	0x3e1c25d5	0.15248807
29	0x3d226764	0.039649382
30	0x3d24a0eb	0.040192526
31	0x3e823eb7	0.25438473
32	0x3c47af2c	0.01218776
33	0x3c3f1d7e	0.011664746
34	0x3ce1f999	0.027584838
35	0x3d67310d	0.056443263
36	0x3cf8667c	0.030322306
37	0x3d16e8d0	0.03684312
38	0x3cfca0f0	0.03083846
39	0x3d4bd704	0.0497656
40	0x3d208871	0.03919262
41	0xbd735f2e	-0.059416942
42	0xbe50e098	-0.20398176
43	0x3ca95694	0.020671166
44	0x3c22e584	0.009942416
45	0x3d437a0b	0.04772381
46	0x3d4b9db5	0.049710948
47	0x3e782405	0.2423249
48	0x3d07de3c	0.033170924
49	0x3d0751a7	0.033036854
50	0x3d006758	0.031348556
51	0x3cf0d526	0.029398512
52	0x3d00972b	0.031394165
53	0x3cf62aaf	0.03004965
54	0x3cfd653b	0.03093206
55	0x3cf4a6f7	0.029864771
56	0x3cf906fb	0.030398836
57	0x3e1a7498	0.1508354
58	0xbe0c8ee7	-0.13726388
59	0x3d0657e7	0.032798674
60	0x3ca91707	0.020640863
61	0x3cf78761	0.03021592
62	0x3cfa8942	0.030583028
63	0x3e62c5de	0.22145793
64	0x3cf747db	0.03018563
65	0x3cefc88c	0.029270433
66	0x3d0511a9	0.032487545
67	0x3d28df46	0.041228555
68	0x3d0f5ee8	0.03500262
69	0x3d156f26	0.036482953
70	0x3d0d234f	0.0344575
71	0x3d26af7b	0.040694695
72	0x3d17da2d	0.037073303
73	0x3d8f8bda	0.070090964
74	0xbe80b19e	-0.2513551
75	0x3d01d2e0	0.031695247
76	0x3d056ec0	0.032576323
77	0x3d270d1a	0.04078398
78	0x3d26d2e7	0.040728476
79	0x3e812208	0.25221276
80	0x3cbf458c	0.023348592
81	0x3cceaf9a	0.025230218
82	0x3d170be8	0.03687659
83	0x3d840883	0.06446936
84	0x3d1feab3	0.039042186
85	0x3d3fc310	0.046816885
86	0x3d25855d	0.04041039
87	0x3d6ea8fa	0.058266617
88	0x3d343449	0.043995176
89	0xbd273e17	-0.040830698
90	0x3cf5823e	0.02996933
91	0x3ce24602	0.027621273
92	0x3c83130f	0.016000299
93	0x3d50aab0	0.05094403
94	0x3d5739b5	0.052545268
95	0x3e84a09b	0.25903782
96	0x3cb7439c	0.022371106
97	0x3cb3cf68	0.021949485
98	0x3d123e52	0.035703965
99	0x3d810e3a	0.063015416
100	0x3d262825	0.04056563
101	0x3d3795ca	0.044820584
102	0x3d249301	0.040179256
103	0x3d6e0d34	0.05811806
104	0x3d44e4d6	0.048069797
105	0x3d5796c6	0.052634023
106	0xbe19b8b4	-0.15011865
107	0x3cefe8b6	0.02928577
108	0xbd83f1ba	-0.0644259
109	0x3d6f3ee9	0.058409605
110	0x3d6f2c9d	0.058392156
111	0x3e496612	0.19667843
112	0x3d02c0ab	0.031922024
113	0x3d02eaa1	0.03196204
114	0x3d04fa05	0.032465
115	0x3d1059cd	0.03524189
116	0x3d06e518	0.032933325
117	0x3d0959cf	0.033532914
118	0x3d057ea8	0.032591492
119	0x3d0ea02f	0.03482073
120	0x3d0b2bf8	0.03397748
121	0x3ba6a88b	0.00508601
122	0xbd44dc0a	-0.048061408
123	0x3d049f50	0.032378495
124	0x3d8b3313	0.06796851
125	0x3d0c78a9	0.034294758
126	0x3d0bfdae	0.034177475
127	0x3e941c8b	0.28928027
128	0x3cd18887	0.025577797
129	0x3cc7e05a	0.024398971
130	0x3ceb200e	0.028701808
131	0x3d170f02	0.036879547
132	0x3ce80ccc	0.028326415
133	0x3cfa56bc	0.030558936
134	0x3cf3abd2	0.029745016
135	0x3d0cff1c	0.03442298
136	0x3d01a6ba	0.031653143
137	0xbdbad1f0	-0.09122074
138	0xbe37aa56	-0.17936072
139	0x3ce47d3f	0.027891753
140	0x3d2da831	0.042396728
141	0x3d089913	0.033349108
142	0x3d09a73b	0.03360675
143	0x3ea09824	0.31366074
144	0x3d072c86	0.033001445
145	0x3cff3a7b	0.031155815
146	0x3d1c00c4	0.038086668
147	0x3d6086e1	0.05481613
148	0x3d1a6c42	0.0377009
149	0x3d282277	0.041048493
150	0x3d1df357	0.038562145
151	0x3d4c151e	0.049824826
152	0x3d366794	0.044532374
153	0xbd5ca73c	-0.053870425
154	0xbdd21327	-0.10257559
155	0x3d10ca8d	0.035349417
156	0x3d637236	0.055528842
157	0x3d497520	0.049183965
158	0x3d4ab4f3	0.049488973
159	0x3e9903d3	0.2988573
160	0x3c80daf1	0.0157294
161	0x3c6da24a	0.014504025
162	0x3cdec025	0.027191231
163	0x3d6ba13a	0.057526805
164	0x3d007eb5	0.031370837
165	0x3d10a727	0.03531566
166	0x3d01f3b4	0.031726554
167	0x3d53ea30	0.05173701
168	0x3d25f6f7	0.040518727
169	0x3d520e55	0.0512832
170	0xbdfe8a03	-0.124286674
171	0x3cac1472	0.021005843
172	0x3d648121	0.05578721
173	0x3d48f762	0.049064048
174	0x3d49e569	0.04929105
175	0x3e92a3c9	0.28640583
176	0x3d19b346	0.037524484
177	0x3d10dede	0.035368793
178	0x3d06748b	0.032825988
179	0x3d05bbcb	0.032649796
180	0x3d0f916a	0.035050787
181	0x3d0797ea	0.03310386
182	0x3d09493f	0.03351712
183	0x3d074831	0.03302783
184	0x3d09ff07	0.03369048
185	0xbce25f4e	-0.027633335
186	0xbe521aeb	-0.20518081
187	0x3d103814	0.03520973
188	0x3df0285a	0.117264464
189	0x3d0af889	0.033928428
190	0x3d0a3ed0	0.03375131
191	0x3e78811f	0.24268006
192	0x3cd0290b	0.025410196
193	0x3ccc85c9	0.024966137
194	0x3cdd7a5e	0.027035888
195	0x3d0cd217	0.034380045
196	0x3cecde30	0.028914541
197	0x3ce82836	0.028339487
198	0x3ce9b64c	0.028529309
199	0x3d044706	0.032294296
200	0x3cefdde6	0.029280614
201	0x3d9af862	0.075669065
202	0xbbab3dce	-0.0052258736
203	0x3ccc9de4	0.024977632
204	0x3d9aafb7	0.07553046
205	0x3cfec16f	0.031098096
206	0x3d060078	0.03271529
207	0x3e8403f9	0.2578428
208	0x3d0bd0f6	0.034134828
209	0x3d113e1e	0.03545963
210	0x3d1f269b	0.038855176
211	0x3d3e62dd	0.046481002
212	0x3d26d9c0	0.040735006
213	0x3d2d46e0	0.04230392
214	0x3d23c958	0.03998694
215	0x3d39f2ef	0.045397695
216	0x3d261cf7	0.040554967
217	0x3d9f0248	0.07764107
218	0x3d984f13	0.07436957
219	0x3d14e210	0.036348403
220	0x3d3c547e	0.045979016
221	0x3d2fdd39	0.042935584
222	0x3d32f8d8	0.043694347
223	0x3e4c0c4b	0.19926564
224	0x3cd8300a	0.026390094
225	0x3cd8035f	0.026368795
226	0x3cda264c	0.02662959
227	0x3cea37aa	0.028590996
228	0x3cdaf906	0.026730072
229	0x3cde9e90	0.027175218
230	0x3cdd7946	0.027035367
231	0x3ce38fb1	0.027778478
232	0x3ce03748	0.02737011
233	0xbd00a21b	-0.031404596
234	0xbe5bae92	-0.21453312
235	0x3cd923a5	0.026506254
236	0x3d7f40a2	0.062317498
237	0x3ce59a96	0.028027814
238	0x3ce6f4c8	0.028192893
239	0x3ec170a0	0.3778124
240	0x3d04df28	0.03243938
241	0x3d087bea	0.0333213
242	0x3d26d40e	0.040729575
243	0x3d72c45e	0.0592693
244	0x3d331cb2	0.043728538
245	0x3d44b0ad	0.048020054
246	0x3d31aa89	0.043375526
247	0x3d64692e	0.05576437
248	0x3d3d9521	0.0462848
249	0xbe109fbd	-0.14123435
250	0x3d35760a	0.044302024
251	0x3d12543c	0.035724863
252	0x3dab34da	0.0835969
253	0x3d53fb44	0.051753297
254	0x3d583df6	0.052793466
255	0x3e68cab8	0.22733581

fc2.bias f4 [3706]
0	0x3e10b6ea	0.14132276
1	0x3d97d8e4	0.074144155
2	0x3e19f64d	0.15035363
3	0x3ce7dafd	0.028302664
4	0x3d5efb19	0.054438684
5	0x3e249fab	0.16076533
6	0x3e112909	0.1417581
7	0x3d3c5b1a	0.04598532
8	0x3d7bcaf7	0.06147286
9	0x3def9dd9	0.11700029
10	0x3e2630d4	0.16229564
11	0x3d0400a3	0.03222717
12	0x3d9e68f1	0.0773486
13	0x3d8b4068	0.06799394
14	0x3d0d7f05	0.034544963
15	0x3df0c079	0.11755461
16	0x3e146bac	0.14494199
17	0x3d82e865	0.06391982
18	0x3deec84d	0.11659298
19	0x3ce69363	0.028146451
20	0x3da91212	0.082554
21	0x3d72b27a	0.05925224
22	0x3d672fdc	0.056442127
23	0x3dbbae79	0.091641374
24	0x3d35031c	0.04419242
25	0x3d5d9fbf	0.054107424
26	0x3d10e10e	0.03537088
27	0x3d97206d	0.073792316
28	0x3ddb4977	0.10707372
29	0x3d6ec3fb	0.05829237
30	0x3d3272ea	0.04356662
31	0x3d7363e1	0.059421424
32	0x3d174592	0.03693158
33	0x3d0f23e5	0.03494634
34	0x3d52fb2e	0.051509075
35	0x3e06d02c	0.13165349
36	0x3d8ecf2b	0.06973108
37	0x3d3c4cce	0.045971684
38	0x3dbd44bf	0.09241628
39	0x3d97f1de	0.074191794
40	0x3da8f04d	0.08248959
41	0x3d769890	0.06020409
42	0x3d9e66bc	0.07734439
43	0x3dc9c4fa	0.098520234
44	0x3d83b19a	0.06430359
45	0x3d621758	0.055198044
46	0x3e1435f8	0.14473712
47	0x3d33bcb8	0.043881148
48	0x3d49b058	0.04924044
49	0x3e5d9fb6	0.21642956
50	0x3dbb3b40	0.091421604
51	0x3d814f45	0.063139476
52	0x3d5560cc	0.052094266
53	0x3ccd6198	0.02507095
54	0x3cf4436d	0.029817307
55	0x3d252ee6	0.04032793
56	0x3e116951	0.14200331
57	0x3cc16506	0.023607742
58	0x3d893c2a	0.067009285
59	0x3d915b6d	0.07097516
60	0x3dc13f19	0.09435863
61	0x3d5eae53	0.054365467
62	0x3d599e6c	0.0531296
63	0x3d0067ea	0.0313491
64	0x3d3b9716	0.045798384
65	0x3d144877	0.03620192
66	0x3d56a197	0.052400198
67	0x3d90246a	0.070381954
68	0x3e190597	0.14943539
69	0x3d1f2eb0	0.038862884
70	0x3cb42e2c	0.021994673
71	0x3d8f8e43	0.07009556
72	0x3d635c0d	0.05550771
73	0x3cedf799	0.029048728
74	0x3d762e6a	0.060102858
75	0x3d398d0d	0.045300532
76	0x3ce7b2d4	0.028283514
77	0x3d262a3c	0.04056762
78	0x3d8630d8	0.06552285
79	0x3d48b99c	0.049005136
80	0x3d7f48da	0.062325336
81	0x3d81c25c	0.06335899
82	0x3d7de27e	0.061983578
83	0x3d3929cc	0.045205876
84	0x3db4d562	0.08829762
85	0x3ced29e1	0.028950633
86	0x3d9711a4	0.073764116
87	0x3d660237	0.056154456
88	0x3d35f747	0.044425275
89	0x3cbf7dba	0.02337538
90	0x3cd3864a	0.02582087
91	0x3d5e9940	0.05434537
92	0x3d95bdb5	0.07311574
93	0x3d5177b5	0.051139552
94	0x3d496ba4	0.04917492
95	0x3cf46100	0.02983141
96	0x3d3f85c5	0.046758432
97	0x3d6e769e	0.05821859
98	0x3da2e92f	0.079546325
99	0x3cb31b6d	0.021863664
100	0x3d49fe33	0.04931469
101	0x3e027478	0.12739742
102	0x3d99a060	0.07501292
103	0x3d88c060	0.066773176
104	0x3d47c07f	0.048767563
105	0x3c943fc8	0.01809682
106	0x3e540097	0.2070335
107	0x3e2eab4e	0.17057535
108	0x3da5d710	0.080976605
109	0x3d10d327	0.03535762
110	0x3d29b1a4	0.041429177
111	0x3d851c7b	0.06499573
112	0x3d276029	0.04086319
113	0x3d8fc055	0.07019106
114	0x3cbce448	0.023058072
115	0x3d17568f	0.036947783
116	0x3d782ddc	0.06059061
117	0x3d3d651d	0.046239007
118	0x3d9b0a93	0.07570376
119	0x3d3c29d0	0.045938313
120	0x3d050730	0.032477558
121	0x3d180bd3	0.03712065
122	0x3c9057ee	0.017620053
123	0x3d5bc5b9	0.05365536
124	0x3d0f8d44	0.03504683
125	0x3d89601e	0.06707786
126	0x3d472f46	0.048629068
127	0x3ce008c1	0.027347924
128	0x3c96eb7b	0.018422833
129	0x3d8418a8	0.06450015
130	0x3cf0df65	0.029403398
131	0x3d020ddc	0.0317515
132	0x3d2e00c6	0.042481206
133	0x3d4d7d44	0.05016829
134	0x000002ce	1.006e-42
135	0x3d6ed0ef	0.058304723
136	0x3dd1c782	0.10243131
137	0x3c7475c1	0.014920653
138	0x3db0fc4b	0.08641871
139	0x3dc315aa	0.095256165
140	0x3d7b63cd	0.061374474
141	0x3cc75b6d	0.024335587
142	0x3d0b7e84	0.0340562
143	0x3d4b45cc	0.04962711
144	0x3e0ace03	0.1355515
145	0x3dc09397	0.094031505
146	0x3c9eaccd	0.019369507
147	0x3d118fe8	0.03553763
148	0x3d5ff3d9	0.05467591
149	0x3d0de6ac	0.034643814
150	0x3d40d6a1	0.047079686
151	0x3d165a70	0.03670734
152	0x3d0c53e7	0.034259703
153	0x3d3ae131	0.045624916
154	0x3d9c5600	0.07633591
155	0x3df25a14	0.11833587
156	0x3dfc80d2	0.12329258
157	0x3d916d3d	0.07100914
158	0x3dd3dc0b	0.10344704
159	0x3ddc6693	0.10761752
160	0x3d15e766	0.036597632
161	0x3d40955a	0.047017433
162	0x3d946869	0.07246477
163	0x3cc5d7f6	0.02415083
164	0x3de3041b	0.110847674
165	0x3d59cb20	0.05317223
166	0x3d896c4b	0.06710108
167	0x3d991c9b	0.07476159
168	0x3d174789	0.036933456
169	0x3da378c5	0.07982019
170	0x3d8688ff	0.06569099
171	0x3c187380	0.009304881
172	0x3d37d313	0.04487903
173	0x3d0c48a3	0.03424896
174	0x3decd245	0.11563543
175	0x3cb1d75d	0.021709139
176	0x3d2a542c	0.04158418
177	0x3d39b3d4	0.045337513
178	0x3d3132ca	0.043261327
179	0x3db6e15f	0.08929705
180	0x3d79cb9b	0.06098519
181	0x3cb71f23	0.022353714
182	0xbc8b61d9	-0.01701443
183	0x3d34c705	0.044135112
184	0x3d615e02	0.055021293
185	0x3d096094	0.03353937
186	0x3d55ef46	0.052230142
187	0x3d2bae0d	0.041914035
188	0x3d8cec49	0.06881005
189	0x3d0dd0d7	0.034622993
190	0x3d2a3928	0.041558415
191	0x3d5fe17c	0.054658398
192	0x3d2df70a	0.042471923
193	0x3d7abbbc	0.061214194
194	0x3cdf18fc	0.027233593
195	0x3d074791	0.033027235
196	0x3d513f75	0.051085908
197	0x3d627b35	0.05529328
198	0x3d7ad0e6	0.061234377
199	0x3d03694a	0.032082833
200	0x3d279140	0.040910006
201	0x3da4001d	0.08007834
202	0x3d6c41fc	0.057680115
203	0x3d307862	0.043083556
204	0x3d08883e	0.033333056
205	0x3d528852	0.051399536
206	0x3d0ab12b	0.033860367
207	0x3dba6825	0.09101895
208	0x3d692a04	0.056924835
209	0x3d787bab	0.060664814
210	0x3e194b10	0.1497004
211	0x3cde43b0	0.027131885
212	0x3d171764	0.03688754
213	0x3d3097e4	0.043113604
214	0x3cbaa4fb	0.022783747
215	0x3dacf847	0.08445793
216	0x3e0f4e34	0.13994676
217	0x3d857d24	0.06518009
218	0x3dc2f4ff	0.095193855
219	0x3ce5a3c0	0.028032184
220	0x3d075c44	0.033046976
221	0x3d010c02	0.031505592
222	0x3d03db68	0.032191664
223	0x3d89cccb	0.06728514
224	0x3e18f79b	0.14938204
225	0x3db0bb21	0.08629442
226	0x3dd25e74	0.10271922
227	0x3c5788c9	0.013155171
228	0x3dc02895	0.093827404
229	0x3e07aec9	0.13250269
230	0x3d90b6b6	0.07066099
231	0x3cd3da6d	0.02586099
232	0x3d8b0c29	0.06789429
233	0x3d4c89e0	0.049936175
234	0x3d264b11	0.040598933
235	0x3d75cb3d	0.060008276
236	0x3cf75526	0.03019197
237	0x3c9c84e5	0.019106338
238	0x3d4dcc08	0.050243407
239	0x3e0c2815	0.13687165
240	0x3db6764e	0.089092836
241	0x3d060a12	0.032724448
242	0x3db88e51	0.0901152
243	0x3c978b09	0.018498914
244	0x3d4cd234	0.050005153
245	0x3dda8d41	0.10671473
246	0x3db88f33	0.09011688
247	0x3d245ac5	0.040125627
248	0x3d0aedc0	0.033918142
249	0x3d43a70f	0.04776674
250	0x3da6cdce	0.08144723
251	0x3d5c0965	0.053719897
252	0x3cf574d6	0.029962938
253	0x3e203e7c	0.15648836
254	0x3d15d365	0.036578555
255	0x3d643145	0.05571105
