ae_cat_100k.pt (torch, 219295 bytes, 4 tensors)

fc1.weight f4 [16, 1650]
00000000: a2c5 bb3d 03b0 a23d a408 62bd d68f 1a3e
00000010: 0391 9b3d b7c7 703b 3870 c2bc 4a1c 12bd
00000020: 1768 97bc a599 98bd 9bb8 37bb 84d7 653d
00000030: 89f0 733d ff33 1ebc d35d 8c3d ce6f 283c
00000040: 056f 4abc 0f42 26bd a037 80bc 686b 87bb
00000050: 244c da3d 5074 273e b267 b03d 24ba a6bd
00000060: 291f 413c 30de 433d 54e6 6b3c de51 4fbd
00000070: 4f9b 863d 0b02 263d 6c74 d73c 6646 6d3d
00000080: d584 d4bc 175d 2fbb 8b98 1b3c 2948 cd3c
00000090: 17b2 7b39 f551 623d da1e 1fbd 2c95 0abd
000000a0: 0126 f23c 3397 1d3d c5ed b73c 12be 663c
000000b0: add8 dfbc c37f 83bc b111 753d 78e0 41bd
000000c0: e8e2 393d d61a ab3e 2a4e 193d da65 ddbc
000000d0: bdbf 003d 7cc0 633c bee2 77bd 9c91 54be
000000e0: 8a7b 2ebd 41e2 f0bd 6efe 95bb ed31 71bd
000000f0: 9a28 f0bc 79ff 2e3d ac78 a2bd 808c fcbc
00000100: 0bc2 a63d 0c32 aabd d169 083d 1f75 ffbb
00000110: a48c 0bbd 02ce d33b 541c d2bd 99f1 4bbe
00000120: f0e9 9a3c 52a4 b9bc b766 233d b8a3 b2bc
00000130: dafa c2bd e34f 95bd 6e98 58bb 6afa 60bd
00000140: 17fd 1a3d b507 c638 a882 d5bc ed0c d53c
00000150: 6f2e 1f3d b23a fc3c 0747 923d 8eaf 03bd
00000160: a651 f1bb 1f87 04bc 440f 03be eb55 743d
00000170: 95e2 003d acae 333d f789 bdbc 6a6a 3bbe
00000180: 9b1b 26be a717 473c eb5a 3ebd 7eab a3bd
00000190: f3cf b2bd 79a7 f33c 7498 d23c f7a2 31bd
000001a0: cfc3 723d 9a37 153d 3bde 1d3c 283c 9d3a
000001b0: 0a23 203d 160a a2bb cd05 1b3d 14c0 be3c
000001c0: 78a2 bdbc 821c a13d cfa7 d03c 990d 6cbc
000001d0: e8d4 8a3d a327 d93d a2d0 e13c 5b7f 4fbd
000001e0: 4948 0bbd 7128 92bd 498b 153d 9de8 e03c
000001f0: 27eb b7bd 0d9e 99bc 1552 b63d e48c 1abc
00000200: 3c56 a33d 5701 5bbd 77fa b4bc c498 dd3d
00000210: 911c 4bbd 8eda 12bd 7a2d afbd b434 19bc
00000220: 2ee7 69bd 7b79 76bc 70e1 493c f4df 9dbc
00000230: 6d16 803d df7e 0cbd e56e 4f3d 828c 5abe
00000240: ee8c 223b 3f9b 883c ed45 ddbd 871e 5e3d
00000250: 29a5 093d 0dd3 0b3e 44bf 3839 3c08 a83d
00000260: 852c 96bd 9ced 1ebe edd3 2ebb 687a 41bc
00000270: d35a 3c3c 5f28 4a3c c83d c0ba 064f cebb
00000280: 4c41 833d a4df d5bd 2e73 c23d 0d2f a4bc
00000290: dacc f0bc fd5a 6c3c 2429 70ba faee a43c
000002a0: f62d 81bd 5cf4 52bb 14b6 a93d 53be 073e
000002b0: 06a4 17bc df4e 613b 139e a3bd e777 1ebd
000002c0: daa2 72bd f6d6 293d 9060 09bd 505c 063e
000002d0: df05 953e 17f3 00be 68db b2bd 5eaf 523d
000002e0: c89a 9ebb 605b 6abd c7c9 213e ac74 72bc
000002f0: 33d9 c63c 60b4 12be 37b3 e6bc a124 403d
00000300: e966 bb3d 9adb 83bd a769 ea3d 6c23 6a3d
00000310: 26d6 5a3d f12a 8dbd aa86 fabd 5283 9a3b
00000320: 969c b63c c057 e9bb 3718 edbd 0f5b 4f3d
00000330: 518e e23c f7ce 01bd 3c86 0f3d ac2b cc3c
00000340: 9824 cc3c deb1 0cbc 47ee f1bc 02f6 a7bd
00000350: 1d5c 683d 9399 f03c a2c5 0a3d 3293 4cbd
00000360: bcc9 eabc 9a0f 4a3c 3125 bdbd 8c27 453d
00000370: 0c16 d338 7b76 6e3d b505 263d 1278 cfbc
00000380: cb15 ccbc 03bc 38bc e63f 9d3d ae52 91bd
00000390: 8529 a3bc 6764 26be 41ce 88bc f3a5 9c3c
000003a0: 87bb dd3d ac3e ea3d dbb0 2c3d a294 4e3d
000003b0: 5c6f 013d 72bf f53d ef1f afbc 97be c93d
000003c0: b00d 33bd 6018 f13c 8af8 8bbd 8797 033d
000003d0: f2cd 203c cf71 723d d62f e03c 8a46 cc3b
000003e0: 7d04 853d 5571 83bd fcf6 8c3d dad9 6f3c
000003f0: 8b94 babb 81d5 80bd be8e b53c 3ece 7abb
0.09168555 0.07943728 -0.05518402 0.15093932 0.07596018 0.0036740133 -0.02373515 -0.03567151
-0.018482251 -0.0745118 -0.0028033617 0.056113735 0.059555564 -0.0096559515 0.06853833 0.010280563
-0.012355571 -0.040590342 -0.015651524 -0.004132677 0.10659054 0.16352963 0.08613528 -0.08140972
0.011787214 0.047819316 0.014398176 -0.050615184 0.065725915 0.040529292 0.026300631 0.057928465
-0.025942245 -0.0026758367 0.009496818 0.025058823 0.00024003569 0.05525394 -0.03884778 -0.033833668
0.029559137 0.038474273 0.022452245 0.014083402 -0.027324999 -0.016052132 0.059831325 -0.04733321
0.04538241 0.33418912 0.03742806 -0.027026106 0.031432856 0.013900872 -0.060518973 -0.2075867
-0.042598285 -0.117619045 -0.0045774495 -0.058885504 -0.029316235 0.042724106 -0.079331726 -0.030828714
0.081424795 -0.08310327 0.03330404 -0.0077959443 -0.034069672 0.006463767 -0.102593094 -0.19916381
0.018910378 -0.022661362 0.03989288 -0.021806583 -0.095205024 -0.07290628 -0.003304984 -0.054926313
0.03783902 9.442811e-05 -0.026063278 0.02600714 0.038862642 0.030789707 0.07142454 -0.032149844
-0.0073644696 -0.008088856 -0.12798792 0.05965225 0.031466085 0.043867752 -0.023137076 -0.18302312
-0.16221468 0.012151635 -0.046473425 -0.07991694 -0.087310694 0.029742943 0.025707461 -0.043368306
0.05926877 0.03642998 0.009635503 0.0011996077 0.039095916 -0.00494505 0.03784733 0.02328495
-0.02314876 0.078667656 0.025470642 -0.014407539 0.0677889 0.10603263 0.027565304 -0.050658565
-0.034004483 -0.0713662 0.036509786 0.027454669 -0.089803986 -0.018752122 0.08902375 -0.009433005
0.07975432 -0.053468075 -0.022092087 0.10820153 -0.04958779 -0.03585296 -0.08553596 -0.009350944
-0.057105236 -0.015043612 0.012321815 -0.019271828 0.062542774 -0.03430068 0.050642867 -0.21342662
0.002480324 0.01667559 -0.10804353 0.054228332 0.033604775 0.13654728 0.0001761886 0.082046956
-0.0733271 -0.15520328 -0.002667661 -0.011808969 0.011496264 0.012338727 -0.001466685 -0.0062960414
0.06408939 -0.10443047 0.09494625 -0.020041967 -0.029394556 0.01442599 -0.0009161404 0.020133484
-0.063075945 -0.0032189107 0.08286682 0.13256197 -0.009255415 0.0034379286 -0.07989135 -0.038688567
-0.05923734 0.04146477 -0.033539355 0.13121152 0.29106042 -0.12592731 -0.08733255 0.051436774
-0.0048402287 -0.05721605 0.15799628 -0.014798325 0.02427349 -0.1432662 -0.028161628 0.046909932
0.09150488 -0.0643837 0.11445933 0.057162687 0.053426884 -0.06892956 -0.122327164 0.0047153616
0.022291463 -0.0071210563 -0.11576884 0.05062395 0.027655752 -0.031691518 0.035040125 0.024923168
0.024919793 -0.008587329 -0.029532565 -0.08201219 0.05672847 0.029370105 0.033879884 -0.049945064
-0.028660648 0.012332821 -0.09235609 0.048133418 0.000100653706 0.05821846 0.040532786 -0.025325809
-0.024912735 -0.011275294 0.07678203 -0.07095848 -0.019917259 -0.16249238 -0.016699912 0.0191221
0.108267836 0.11437735 0.04216085 0.050434716 0.03160034 0.11999406 -0.021377532 0.09850805
-0.043714225 0.029430568 -0.068345144 0.03212693 0.009814726 0.059190568 0.02736656 0.006233995
0.06494997 -0.06418101 0.06883046 0.014639342 -0.0056939772 -0.06290723 0.022162791 -0.0038269903

fc1.bias f4 [16]
00000000: 71e3 90bd 520a 2a3e 3836 113f 3588 cabd
00000010: 5472 403e 0cbb 6f3e 1794 16be d233 80be
00000020: 1a9a 153e 7873 853c b6e0 a6bc a799 40bd
00000030: ed54 62be 11fc a3bd 8bdf a33e ad20 d43c
-0.07074631 0.166055 0.56723356 -0.09889261 0.18793613 0.23411196 -0.1470493 -0.25039536
0.14609566 0.016290411 -0.020370822 -0.047021534 -0.22102709 -0.08007062 0.32006487 0.025894487

fc2.weight f4 [1650, 16]
00000000: f89a e13d 82f1 613d f07d f3bc 23b4 6e3d
00000010: f3f0 573e baab a93d fc73 833d c3e0 6a3e
00000020: 1d14 3b3e 72c7 dd3d 10ac 813d a4c7 9c3c
00000030: 46a8 0f3e 4e46 843d 14c6 af3d 6c70 69bc
00000040: d1b4 5f3d b520 d63c 58fe aebd 26b9 bb3d
00000050: 6ddf 843d 82c4 093e 693d 913d cd43 503e
00000060: 8120 bd3d e8f2 a33c cbc1 8c3d 6293 963c
00000070: 830c 463e 45f6 f83d ba6e 26bd 24dd 043d
00000080: de48 943d eddf 183e 17b0 7fbd be16 263e
00000090: 39ef 9a3d 6acb 453d 7145 f03d 0291 65bd
000000a0: b985 913d 8627 a13d 0c8b dfbc ca9a d23b
000000b0: 07db 943e 2c8f 783d f41d 2d3d 1fd4 173d
000000c0: c1e2 563e 7e9e b23d b8b5 b03d 4a77 9e3d
000000d0: 989a 0c3e a6c5 053e b1a6 273e 1760 e93d
000000e0: 9b95 8c3d 4d7f b23c cbe1 953d 9020 853d
000000f0: bd9b 32bd e36e bd3d b2a3 d2bb ddaf a03d
00000100: f78f 343d 4bc9 8b3d 1b77 693d ae43 b8bd
00000110: 6044 873d 2cd8 c0bc 0cf7 3e3e 890f 223d
00000120: bad1 073d baba 0f3e d5f0 f03d ef68 bc3d
00000130: 26a8 413e 1538 df3d 6400 0a3d f418 083e
00000140: 791c ae3d 26ce 913d 0f40 ab3d 774d 313e
00000150: 0e89 213e ef96 123e b04a 203d afec c13d
00000160: 9737 9d3d 8206 3a3e f3ac 423d 17e9 283e
00000170: 88fe c93a b861 6c3d 93e3 6e3d 6866 4d3d
00000180: 96f0 8a3d d2a9 3f3e c109 613c f5c8 cd3c
00000190: e2a2 b33d 09db 9b3b ef8a a13d 50c7 7b3d
000001a0: 837d 1f3e 8cf7 193e 8ae2 0c3e 3f37 5e3d
000001b0: 8b9b 3c3d 853f 0a3e 5866 553d 9941 6d3d
000001c0: 7284 143e 60f0 17bc 10c3 923d 5892 123d
000001d0: b8e9 273e 1cc5 c13d b16c 013e be02 a63d
000001e0: 86d2 023e aad2 a83c 0a5b 163e 17ad 6a3d
000001f0: 900e a0bb c91a 2a3e 4061 863d c703 aa3d
00000200: 8526 233d 767d 463e 0862 6d3d 2036 163e
00000210: 7c6a 863e feb2 d93d b1b3 a63d d2ad f33b
00000220: ba09 f63c 6c7a 613e 1cc0 793d 51ac 563d
00000230: e601 dd3b 1ba0 383d 165c e63d 2c68 17bd
00000240: f98c 443d 365e 0a3e 3419 3e3e e0c8 4f3c
00000250: f747 a33d 085f 113e 1de1 6d3d 222a 983d
00000260: 4e94 283e 61a5 853c 1ce4 ec3d 57a1 b33d
00000270: de0c 163d a96d b63d dbc9 3c3d ef1d 813c
00000280: 739d 5d3d 77f9 2b3e 441e 923c f37a 553e
00000290: 5475 083e 8c10 4dbd 60ee d83d 3fce fc3c
000002a0: 17e2 0c3e fea2 ee3d 20a6 2f3d b9bd 853d
000002b0: a285 ce3d e2b2 1a3d c96e 163e 8f00 043d
000002c0: 75c2 663e 9780 a03d 4a03 d53d c059 283d
000002d0: 8ded 603d 169c 05bd 053d 973d f1da 21bb
000002e0: e97c c03d ab81 fabc 1563 783e 9d54 613d
000002f0: de8b bf3d a70d 593e f32b 503d 6fc9 283d
00000300: c1ca f53d bc2a 233e ca9e 8ebc ba1f f03d
00000310: 052a ca3d 0c41 213e 132c c93d e94a c03d
00000320: 444b 783d f963 ff3d b8f1 243d 52ce 3f3e
00000330: 15ed efbc 699d 893d a596 5f3d c8b0 293d
00000340: 0f43 133d 2ae3 e23d 99a2 da3d 52f8 ac3d
00000350: 04af 583e 7e03 f53d 81b7 b53c 688c 99bc
00000360: 7dad 7d3d fcc6 483e ed2c de3d 3217 bfbc
00000370: 100c a5bd e283 823d f719 bb3d fc92 5b3b
00000380: 1905 a53d 66d6 cf3d 85e0 063d 22ea c73d
00000390: 70a8 573e 887d c73d e3cc 413e bc78 713d
000003a0: 0945 97bd 4c7f 193d 8dca 7c3d 04bb 8abd
000003b0: b1cc d63d 792c c03d a9a3 9b3d cd87 f53d
000003c0: aed3 f23d bcb5 fc3d 231b 51bc 47ba fa3d
000003d0: c7d1 bc3d 9c60 3b3d 0707 7bbd 7506 723c
000003e0: 87c5 373e ae49 2a3e 13f9 b63d 163f a93c
000003f0: 978a 9f3c ebf2 d73d ddea f23b cb7c 6abb
0.11015886 0.05516196 -0.029723138 0.05827726 0.21088009 0.08284707 0.06418607 0.22937302
0.18269391 0.10829057 0.063316464 0.019138165 0.14029035 0.06458722 0.08582702 -0.014247995
0.0546158 0.026138643 -0.08544606 0.09166174 0.064879276 0.13453868 0.07091791 0.20338364
0.09234715 0.020013288 0.068729006 0.018380824 0.1934071 0.12156347 -0.04063294 0.03243746
0.07240461 0.14929171 -0.06242379 0.16219613 0.07565159 0.048289694 0.11731995 -0.056046493
0.07105584 0.078688666 -0.027287982 0.0064271437 0.29073355 0.060683414 0.042264894 0.03706753
0.20984937 0.08721636 0.0862841 0.07737596 0.13730848 0.13063678 0.16372181 0.11395281
0.068644725 0.021789217 0.07318457 0.065003514 -0.043605555 0.092496656 -0.0064282054 0.07846043
0.044082608 0.06825503 0.056998353 -0.08997284 0.06604838 -0.023540579 0.18648928 0.039565597
0.033158995 0.14036074 0.11764685 0.09199702 0.189118 0.10899369 0.03369178 0.13290769
0.085015245 0.07119398 0.083618276 0.17314707 0.15774938 0.14315389 0.039133728 0.09468972
0.076766185 0.18166545 0.04752822 0.16495167 0.0015410939 0.05771038 0.0583225 0.05014649
0.067841694 0.18717125 0.013735236 0.025120238 0.08771302 0.0047563356 0.078878276 0.061469376
0.15575223 0.15035838 0.13758293 0.054251906 0.046046775 0.13500793 0.052099556 0.057923887
0.14503649 -0.009273618 0.071661115 0.035784096 0.1639775 0.09461424 0.12639119 0.08105992
0.12775621 0.020608265 0.14683166 0.057293978 -0.0048845485 0.1661178 0.06561518 0.08301502
0.039831657 0.19383797 0.057954818 0.14669085 0.26253116 0.10629843 0.08139742 0.0074364925
0.030033935 0.22019356 0.060974225 0.052410427 0.006744611 0.045074563 0.11248033 -0.03696458
0.047986005 0.13512501 0.18564302 0.01268217 0.079727106 0.14196408 0.058076013 0.07429911
0.16462824 0.01631421 0.11566946 0.087710075 0.036633365 0.08907635 0.046090942 0.015761344
0.054105233 0.16794382 0.017836697 0.20847683 0.13326007 -0.05006461 0.105923414 0.030860065
0.13758121 0.11652182 0.04288304 0.06530327 0.10084082 0.037768252 0.14690699 0.032227095
0.22535117 0.078370266 0.10401018 0.041101217 0.054914046 -0.03261956 0.073846854 -0.002469715
0.09398825 -0.030579409 0.24256547 0.055012334 0.093528494 0.21196614 0.050823163 0.041207727
0.12001563 0.1593427 -0.0174097 0.11724801 0.09871296 0.1574747 0.098228596 0.09389288
0.060618654 0.1247024 0.040269583 0.18731049 -0.029287854 0.06719477 0.054587025 0.041428357
0.035952624 0.11078484 0.10675544 0.08445801 0.21160513 0.11963557 0.022182228 -0.018743709
0.06193303 0.19607157 0.10848413 -0.02332649 -0.08058941 0.06372811 0.09135812 0.0033504358
0.08057613 0.10148315 0.032928962 0.09761454 0.21060348 0.0974074 0.18925814 0.058953032
-0.07386214 0.037474915 0.061716605 -0.06773952 0.104882605 0.093834825 0.07599575 0.119887926
0.11856781 0.123393506 -0.012762818 0.12242561 0.09219699 0.04574643 -0.061286 0.014772047
0.17946444 0.16629669 0.08934226 0.020659965 0.019475264 0.1054438 0.007413252 -0.0035779949

fc2.bias f4 [1650]
00000000: 1530 a73d 7676 cf3c 572d 8f3d efdc c63d
00000010: a60e b43d b97a ef3c 2f99 d73d 936a 1e3e
00000020: e5bb dc3d b587 303e a6d3 283e 8a39 4b3e
00000030: cc9c a13d 0e53 473e 98f4 3c3e 434d a13d
00000040: 8022 513c a6b9 e93d b1ca 0a3e 30c0 073d
00000050: f85c c73d 5abe 3c3e 2410 743e e527 af3d
00000060: 0acc 373d cb3e cc3d c5f4 b73d 68d2 513e
00000070: ae0f 1f3e 310e 3a3e 9752 823d db8f f23d
00000080: 9f60 783d 18eb bc3d 134b 523d 0ef2 d53d
00000090: 18d1 ba3d 93a8 0b3e 4d55 7e3b 3164 f93d
000000a0: beb2 9e3d a209 3f3e 84ee d33d 2b05 913d
000000b0: 5060 d43d b51c dc3d a5aa ff3d a0c7 433e
000000c0: b88d a93d f443 3d3e bb81 923d a028 ce3d
000000d0: ecf8 003e c210 a13d b725 543d 5a61 153e
000000e0: 06d8 d53d 579b bc3d 60ea 063e ff31 083e
000000f0: 8eff 283e 748c a73d de5d 9c3d 8503 973e
00000100: a552 8e3d c7ab d93d f04d 053e 1f34 753d
00000110: 07fa 403e 9bc3 253e 676e 583d 0cff 573d
00000120: 198e 523e e77c 2b3e 57a2 f13d 488f d83d
00000130: 884f 783d b1e5 d93d 90b8 883e 7d95 bb3d
00000140: 4cf5 783d f569 a03d 182d 5a3e a212 bc3d
00000150: fb1e 3a3e 10bf 8d3d 111f 093e 7a87 183d
00000160: b5a0 2d3e 3ec7 e73c 0dc9 f13d 14f2 073d
00000170: cf31 723d 308e fb3d 70ec e63d c8ce 483e
00000180: 2087 ca3d 57f9 8f3e c204 063e d6a4 423e
00000190: 510a 473d 2070 903d a155 d23c 4e9b af3d
000001a0: 4e88 c53d 506f fc3d 0ebc 4f3d 3435 953d
000001b0: 6f4a a13d 1909 4d3d dc4c a53d 62b4 1a3d
000001c0: 5251 2b3e 6761 5d3e 9d5b a03d 15e2 353d
000001d0: 7365 1f3d 08be 3f3d 05ef 013e 1b05 21bc
000001e0: f2a3 be3b 868c 8c3d 4e10 f93d e5af 463e
000001f0: 8b66 8e3d 094f 8b3d daa9 5f3e f368 983d
00000200: 336f 823d 35ea 523c 4cc1 e43d 4055 133e
00000210: 241e 433e c6c0 563e 5ec3 253e c169 0c3e
00000220: 792d 113e aa25 fcb9 f183 db3d b69c f63d
00000230: d0a9 063e 1e04 c43d 88b7 453e 8112 363e
00000240: bfc0 413d 8619 ab3d 7dcf 333d f3e6 1e3e
00000250: 7b4a fc3d 57c5 52bb cfee 983d 56b1 cc3d
00000260: 7799 c93d 23f8 193d 7f33 e53d b8ac 253e
00000270: 7189 0b3e e69a 813d 5129 2e3e ac38 113e
00000280: deda ca3d 1caf d33d d32b 9f3d 06d8 993d
00000290: 6d52 2b3e 72be 3b3e a67a 2a3d d35d 003e
000002a0: 8d5e 873e 5c21 6f3d 7bcf f83d 6b66 fd3d
000002b0: 9c95 733e a56e 4f3e 0724 193e 373f e33d
000002c0: 8c9d 0c3e d3f0 953e 9d53 ca3d 42de 153e
000002d0: d550 1a3e 1082 c13d 23ce 133e eab0 29bd
000002e0: 7400 363e f516 023e a6d3 4b3e f075 283d
000002f0: 2e09 263e 9d8e 733e c663 523e f897 903e
00000300: 0861 6b3e 89e6 403e 7c84 393e 73f3 e53d
00000310: d199 3a3e fb8f 363e 94a0 2c3e 47fe 203e
00000320: d419 163d 131c 0f3e 1597 4b3e 8462 e43d
00000330: 4b5e 573e f99f dd3d 138b 8e3d 206b 003e
00000340: 1aa4 2d3e adc1 0c3e f7b6 c63d 9cd2 fc3d
00000350: 024d d53d 1e6b a63d b324 043e 7249 073e
00000360: c140 a03c d948 133e 9862 2a3e 90e9 ea3d
00000370: 037c 663d 78a6 4b3e 4df9 503e 28f6 8d3d
00000380: 34b5 083e 9b04 203e 3f2b 573e 89d6 2d3e
00000390: a237 243e 6a25 4b3e 88bf c13c 873c 993d
000003a0: 158b c63d 9fbb 053e 08bd 773c c359 fb3c
000003b0: bc6b 163e 362a 223e 7541 0d3e c81b 99bb
000003c0: cd04 ed3d cf37 bc3d 5847 f13d 92eb 1f3e
000003d0: 3938 133e ed1b 21b8 f2b7 a33c 0894 bf3d
000003e0: 02a7 27bd b1bf c83d aaa4 0f3e 9e05 943d
000003f0: 1f6d 2a3e 4939 af3a d176 1b3d c328 e83d
0.08163468 0.025325041 0.0699107 0.097101085 0.087918565 0.029233323 0.10527264 0.15470342
0.107780255 0.17239268 0.16486987 0.19846168 0.07891235 0.19465277 0.1845268 0.07876065
0.012764573 0.11412363 0.13553883 0.03314227 0.09734529 0.18431988 0.23834282 0.08552531
0.04487232 0.09972914 0.08982233 0.2049042 0.15533325 0.18169476 0.06363409 0.118438445
0.06063902 0.09224528 0.051341128 0.10446559 0.09121913 0.13638525 0.0038808167 0.12177313
0.07748936 0.18656018 0.103482276 0.07081064 0.10369933 0.10747663 0.1248372 0.1911912
0.08278984 0.18482953 0.071536504 0.10066342 0.12594956 0.078645244 0.05179378 0.14587918
0.10441594 0.09209316 0.13175344 0.13300322 0.16503736 0.08181086 0.07635091 0.29494873
0.06949357 0.10628467 0.13018012 0.05986416 0.18845378 0.16187899 0.052839663 0.052733466
0.20562018 0.16746865 0.11798542 0.10574204 0.060622722 0.10639513 0.2670331 0.09159372
0.06078081 0.0783271 0.21306264 0.091832414 0.1817588 0.06921208 0.13390757 0.037238576
0.16955836 0.028293248 0.118059255 0.033189848 0.059129532 0.122829795 0.112755656 0.19610131
0.09889054 0.2811992 0.13087752 0.19008192 0.048593823 0.07052636 0.025675597 0.08574544
0.09645139 0.12325919 0.050716452 0.07285538 0.07875525 0.050057504 0.080713004 0.037769683
0.1673024 0.21619187 0.07829974 0.04440506 0.03891511 0.046812087 0.12688835 -0.009827877
0.0058178836 0.0686274 0.12161313 0.19403036 0.06953152 0.06802184 0.21842137 0.074418925
0.06368866 0.012873222 0.11169681 0.14387989 0.19054466 0.20971975 0.16187808 0.13712217
0.14177503 -0.00048093247 0.10718525 0.12041609 0.13150716 0.09571098 0.19308293 0.17780496
0.047302958 0.083544776 0.043899048 0.15517788 0.123188935 -0.003216108 0.07467424 0.09994762
0.09843724 0.037590157 0.11191463 0.16179168 0.13626648 0.06328373 0.17007948 0.14181775
0.09905027 0.10336134 0.07772031 0.07511906 0.16730662 0.18334368 0.041620873 0.12535791
0.26439324 0.058381423 0.12148949 0.1237305 0.2378754 0.20257051 0.1495515 0.11096042
0.13731974 0.29285297 0.09879229 0.14635566 0.15069897 0.094486356 0.14434104 -0.041428484
0.1777361 0.1270407 0.19904956 0.0411281 0.1621444 0.23784871 0.20545873 0.28240943
0.22986233 0.18837942 0.18116945 0.11228075 0.18222739 0.17828362 0.1685813 0.15721999
0.036645725 0.13975553 0.19881852 0.11151603 0.21032064 0.10821528 0.0696012 0.12540865
0.16957131 0.13745756 0.097028665 0.12344858 0.10415079 0.081259 0.12904625 0.13211611
0.019562127 0.14383258 0.16639173 0.1147033 0.05627061 0.19887722 0.204076 0.06931716
0.13350374 0.15626757 0.21012591 0.1697637 0.16036847 0.19838491 0.0236509 0.07482248
0.096944965 0.13059853 0.015120752 0.03068245 0.14689535 0.15836415 0.13794501 -0.0046725012
0.11573181 0.09190332 0.11781186 0.15617207 0.14376916 -3.84114e-05 0.019985173 0.093544066
-0.040930755 0.09802187 0.14027658 0.07227634 0.16643189 0.0013368513 0.03795511 0.113359
