ae_main_100k.pt (torch, 219295 bytes, 4 tensors)

fc1.weight f4 [16, 1650]
-0.111272104 0.05670524 -0.043259766 0.06090818 0.11662825 -0.0019422828 -0.027147556 -0.031961463
0.11802939 -0.0063073174 -0.07986832 -0.0155271655 -0.023242148 -0.0599421 0.023543077 0.0066848802
-0.047374383 -0.008571887 -0.035968628 -0.01136536 -0.029015265 0.0024746682 0.07890174 -0.050803326
-0.08804834 0.03315591 0.11484184 -0.011814811 0.016953604 0.16191089 0.11607943 0.15599875
-0.028000373 0.031319752 -0.025635855 0.011289627 -0.013443773 -0.0027746505 -0.044679847 -0.052696977
0.044272974 -0.110339165 0.022102237 -0.0014217175 0.014203036 -0.008559316 0.15581219 0.0002941638
0.016975842 -0.21794683 -0.027236039 -0.043801922 -0.040768582 -0.0813909 -0.07728008 -0.017276723
0.00961477 0.034238853 0.10170689 -0.027709616 -0.033835966 -0.027228024 -0.087168634 -0.0027039358
0.030249007 -0.20357808 0.06413586 -0.13092662 0.029010316 -0.09795721 -0.006739856 -0.12804829
0.03405331 0.003382443 -0.030683137 -0.0867586 -0.14888269 -0.009914021 0.006148181 -0.10522435
-0.08341823 -0.019938711 -0.1686338 0.06801735 -0.047943305 0.11539872 -0.04602159 -0.041617103
-0.0046736416 -0.02453972 -0.16480842 0.051285025 0.095817536 0.07128828 -0.08524957 0.065667056
-0.07441454 0.03660632 -0.054677855 -0.033694897 -0.14772718 0.13245878 0.012771491 -0.067995146
0.07698015 0.024123961 -0.042523738 0.0438402 -0.03321681 0.007184935 0.06901441 -0.03100588
0.036419693 0.0038348194 0.0412998 0.004998039 -0.17570405 0.24084538 0.015462028 0.14363076
-0.15591553 -0.053558752 0.04901935 -0.017823402 0.05326981 0.024597771 0.025254456 0.011246352
0.0851348 -0.08323971 -0.12790509 0.15440077 -0.015013159 0.0665747 0.007981594 -0.0055394764
-0.03656916 0.010046082 -0.05315967 0.078148365 0.047153655 -0.007884194 -0.016845888 -0.05236911
-0.05217735 -0.009714192 0.004592875 -0.04193385 -0.0444087 0.016074395 -0.12086378 0.09511831
-0.107571475 -0.12498367 -0.019854683 -0.054921806 0.051377177 -0.060037527 -0.051809855 -0.014441464
0.049548432 0.054432318 0.008214378 -0.123312786 0.06869683 0.03706495 0.0019285443 0.03799772
-0.06838078 -0.03112609 0.005495339 0.1104288 -0.17346336 -0.22821936 0.036259227 0.06572572
0.048171848 -0.05229475 -0.035272967 0.139176 -0.23763648 0.12382543 -0.019567413 -0.03771258
0.2403518 -0.048440404 0.22575794 -0.0033121055 -0.07950228 -0.077269845 0.07786005 0.20731977
0.06667209 -0.052319583 0.020117102 0.03492023 0.16661392 -0.10865617 -0.010448099 -0.035728995
-0.0751213 0.096505865 0.1053221 -0.0064043105 0.02239522 -0.15762842 -0.05077425 0.09791871
0.06017509 0.13553053 -0.034909472 0.006243209 0.11015402 0.01301555 -0.026822114 -0.06745518
-0.043594345 0.03197179 -0.11073242 0.020496948 -0.053674318 -0.18015502 -0.003850368 -0.081148624
-0.007163969 -0.0034778544 0.07477585 -0.14705285 0.07489717 -0.13775279 0.077017896 0.009007486
-0.024859153 0.05836262 0.11373825 0.054693263 0.02894726 0.039887093 -0.09918946 0.18957122
-0.07988582 0.050693817 0.06505406 0.045095716 -0.037608366 -0.10291824 0.0055174576 0.024749672
-0.042438366 -0.15314935 0.13133016 0.107147254 0.046357986 0.01505936 -0.06900074 -0.00566058
00000000: a1e2 e3bd c143 683d 2731 31bd db7a 793d
00000010: cbda ee3d 3294 feba 8d64 debc 06ea 02bd
00000020: 65b9 f13d 9dad cebb 0092 a3bd a765 7ebc
00000030: 5166 bebc d985 75bd 69dd c03c d70c db3b
00000040: a40b 42bd 1a71 0cbc d753 13bd c635 3abc
00000050: 6cb1 edbc 0b2e 223b 3c97 a13d 2617 50bd
00000060: b052 b4bd 7ece 073d 3332 eb3d e992 41bc
00000070: 49e2 8a3c f8cb 253e 0dbb ed3d 23be 1f3e
00000080: 0a61 e5bc 2449 003d 4902 d2bc 21f8 383c
00000090: 4543 5cbc e9d6 35bb 3702 37bd c9d8 57bd
000000a0: 9457 353d 80f9 e1bd c00f b53c ec58 baba
000000b0: dab3 683c 603c 0cbc 3b8d 1f3e ff39 9a39
000000c0: ec10 8b3c 742d 5fbe 1d1e dfbc a569 33bd
000000d0: f5fc 26bd 46b0 a6bd 0545 9ebd ea87 8dbc
000000e0: 4587 1d3c 0a3e 0c3d b44b d03d 47ff e2bc
000000f0: 9597 0abd 4e0d dfbc 7885 b2bd 8434 31bb
00000100: c4cc f73c c676 50be a959 833d a111 06be
00000110: 0ba7 ed3c ca9d c8bd 03da dcbb 171f 03be
00000120: 7c7b 0b3d faab 5d3b 345b fbbc 7eae b1bd
00000130: b474 18be 6b6e 22bc ae76 c93b dd7f d7bd
00000140: 2dd7 aabd 8256 a3bc 57ae 2cbe ae4c 8b3d
00000150: 3360 44bd 2a56 ec3d 2281 3cbd b276 2abd
00000160: 5925 99bb 8607 c9bc 8ac3 28be 3f10 523d
00000170: fc3b c43d 97ff 913d 5497 aebd 737c 863d
00000180: a666 98bd 82f0 153d e3f5 5fbd a903 0abd
00000190: cb45 17be 46a3 073e 843f 513c 0a41 8bbd
000001a0: c5a7 9d3d 9d9f c53c 5f2d 2ebd c891 333d
000001b0: 5a0e 08bd 9a6f eb3b 6d57 8d3d 0b00 febc
000001c0: d12c 153d 9851 7b3b fb29 293d 97c6 a33b
000001d0: c3eb 33be 2ca0 763e 7254 7d3c f113 133e
000001e0: 52a8 1fbe 6c60 5bbd 84c8 483d 6202 92bc
000001f0: 7231 5a3d 4481 c93c 6fe2 ce3c 9f42 383c
00000200: 275b ae3d 9579 aabd 8df9 02be 3c1b 1e3e
00000210: c1f9 75bc 5158 883d 3bc5 023c 7f84 b5bb
00000220: 8bc9 15bd 5298 243c f4bd 59bd 400c a03d
00000230: 3124 413d b52c 01bc 6300 8abc fe80 56bd
00000240: ebb7 55bd 4628 1fbc d47f 963b d4c2 2bbd
00000250: e6e5 35bd 73ae 833c 6e87 f7bd 63cd c23d
00000260: 6f4e dcbd 70f7 ffbd 4aa6 a2bc b0f5 60bd
00000270: e070 523d e9e9 75bd 9236 54bd e49b 6cbc
00000280: 4cf3 4a3d 6cf4 5e3d 9995 063c 6a8b fcbd
00000290: ecb0 8c3d 6bd1 173d 35c7 fc3a 7fa3 1b3d
000002a0: 390b 8cbd 24fc febc 3f12 b43b 7f28 e23d
000002b0: 61a0 31be 56b2 69be 8e84 143d 359b 863d
000002c0: d84f 453d 0533 56bd 637a 10bd 2784 0e3e
000002d0: fa56 73be 3098 fd3d d74b a0bc 8278 1abd
000002e0: c81e 763e 7269 46bd 172d 673e e90f 59bb
000002f0: 17d2 a2bd a73f 9ebd 1775 9f3d a24b 543e
00000300: 608b 883d 0f4d 56bd 9fcc a43c 8408 0f3d
00000310: d79c 2a3e 2087 debd 812e 2bbc 9158 12bd
00000320: 32d9 99bd dea4 c53d 1db3 d73d 40db d1bb
00000330: 2e76 b73c 5869 21be a9f8 4fbd 9b89 c83d
00000340: 287a 763d 84c8 0a3e 3cfd 0ebd d593 cc3b
00000350: 6e98 e13d 2c3f 553c 0dba dbbc f125 8abd
00000360: fc8f 32bd daf4 023d aec7 e2bd 37e9 a73c
00000370: 9ad9 5bbd 8f7a 38be 7556 7cbb 4031 a6bd
00000380: babf eabb b7ec 63bb 1524 993d 0695 16be
00000390: b063 993d 110f 0dbe 8fbb 9d3d 2294 133c
000003a0: 6ca5 cbbc a50d 6f3d 9aef e83d 0b06 603d
000003b0: ce22 ed3c a660 233d d823 cbbd f51e 423e
000003c0: 2d9b a3bd 52a4 4f3d 103b 853d 49b6 383d
000003d0: 3b0b 1abd ccc6 d2bd cacb b43b d3bf ca3c
000003e0: dad3 2dbd 2fd3 1cbe 6a7b 063e 0570 db3d
000003f0: dfe1 3d3d 89bb 763c 4350 8dbd 637c b9bb

fc1.bias f4 [16]
0.117471956 0.67906576 -0.23622818 0.23893225 -0.16705467 -0.015603688 0.024390433 -0.14462662
-0.04059051 -0.05806522 0.56351185 0.05603295 -0.24394369 0.06724586 0.10744451 -0.15428339
00000000: 2395 f03d 41d7 2d3f cde5 71be a8aa 743e
00000010: 6110 2bbe 9ca6 7fbc 72ce c73c 0019 14be
00000020: 3c42 26bd ccd5 6dbd 5042 103f ce82 653d
00000030: 60cc 79be 33b8 893d de0b dc3d 77fc 1dbe

fc2.weight f4 [1650, 16]
0.0044735917 -0.03440612 0.10434102 0.018041773 0.12998274 0.10870466 0.27444944 0.19179687
0.05911038 0.028672468 0.13117842 0.15534207 -0.015852673 0.00447577 0.15208586 0.08542685
0.08213146 -0.13733932 0.09847619 0.067172445 0.24270931 0.08485291 0.0934766 0.067577265
0.07241561 0.07951479 -0.049895514 0.065862045 0.12585214 0.08442185 0.089909196 0.083727926
0.07025833 -0.021234255 0.08386254 0.09794947 0.08886983 0.08280951 -0.08087128 0.19426122
0.07127333 0.05796488 -0.044800144 0.120695464 0.17164764 0.13629314 0.05567873 0.10013455
0.08686808 0.09845031 0.110168025 0.06410535 0.15774736 0.12659629 0.13037965 0.04868489
0.13977455 0.15680669 0.01553765 0.080036685 -0.015457855 0.06665669 0.036143295 0.073126465
0.010186733 0.1480834 0.14784266 0.023861825 0.06332317 0.046474632 0.11897251 0.07402777
-0.06868307 -0.023521356 0.0065851915 0.0659306 0.19746618 0.014749609 0.18590909 0.13706453
0.19364643 0.13300139 0.082745954 0.10088522 0.00868666 0.054631207 0.13395418 0.08033659
0.09264384 0.22275162 0.11834254 0.056104317 0.009775264 0.07738899 0.097502135 0.045227557
-0.056915272 0.013871597 0.015371145 0.18766977 0.09791653 0.109838635 0.121810906 0.18784937
0.1562532 0.04507716 0.04616248 0.08103361 0.054865006 0.12158932 0.08959532 0.12721546
0.040463593 0.17608334 0.058829073 0.10022882 0.14753406 0.110157564 0.14040595 0.112832606
0.100081004 0.08473863 0.13507564 0.020886434 -0.023289004 0.050400723 0.12052391 0.078095
0.102213636 -0.033340566 0.010067815 0.16059498 -0.03858907 0.115955815 0.073369265 0.13117154
0.11530519 0.07740479 0.20505969 0.104023375 -0.046430107 0.021275934 0.30674252 0.035973586
0.067171365 0.1645631 0.0052428218 0.114431 0.10911277 0.105673574 0.12467234 0.017445931
0.097792186 0.016323082 0.042165138 0.117335536 0.04676355 0.11904079 0.077140264 0.06313018
0.05541541 0.0135819465 0.0934585 0.17831098 0.07170925 -0.0013241508 -0.00827629 0.2349606
0.016066572 0.017086744 0.19583909 0.118219785 0.095427796 0.09441617 0.1569209 0.04881332
-0.03907417 0.12191791 0.091275856 0.055274963 0.08704212 0.16253662 0.05746055 0.023027163
0.13415217 0.0082095815 0.08075928 0.033652104 0.04450201 0.082182676 -0.018376073 0.22177228
0.18833765 0.043224446 0.09691479 0.11227348 0.045674823 0.094453365 0.07069972 0.07074174
0.11076759 0.120746166 0.05338415 0.039280925 -0.03285554 0.09606097 0.10105749 0.084115215
0.031059857 0.10141208 -0.0003396967 0.112654164 -0.0719553 0.080870554 0.050006352 0.061500113
0.10891015 0.1845016 0.077061966 0.09115502 -0.09034949 0.079644844 0.16036966 0.030534113
0.047627386 0.07663549 0.105225645 0.035188973 0.067008056 0.10391476 0.050366376 0.038925625
0.023550969 0.100527324 0.07586352 0.06809938 0.10248359 -0.024520434 0.17879917 0.12719241
-0.029544568 0.07333159 -0.071922176 0.12876034 0.019263973 0.13807109 0.081248194 0.13452688
0.09829039 0.042932242 0.010657064 0.21363729 -0.032777976 0.14165439 0.024268921 0.1332363
00000000: 3597 923b 6fed 0cbd bfb0 d53d 57cc 933c
00000010: 321a 053e 8ca0 de3d a384 8c3e 6666 443e
00000020: ba1d 723d 86e2 ea3c a353 063e fe11 1f3e
00000030: 77dd 81bc 7ba9 923b 65bc 1b3e 46f4 ae3d
00000040: 8a34 a83d aea2 0cbe e2ad c93d b591 893d
00000050: ca88 783e 5dc7 ad3d a970 bf3d f365 8a3d
00000060: a34e 943d a6d8 a23d 3d5f 4cbd aee2 863d
00000070: 62df 003e 5de5 ac3d 5022 b83d 8c79 ab3d
00000080: 99e3 8f3d 76f3 adbc 20c0 ab3d bb99 c83d
00000090: 6301 b63d 0898 a93d d79f a5bd 6aec 463e
000000a0: c0f7 913d 956c 6d3d 5b80 37bd 2f2f f73d
000000b0: 66c4 2f3e 6e90 0b3e 610f 643d 5813 cd3d
000000c0: e4e7 b13d 51a0 c93d c69f e13d aa49 833d
000000d0: 8688 213e 75a2 013e 3e82 053e cf69 473d
000000e0: 0f21 0f3e ef91 203e a191 7e3c 46ea a33d
000000f0: f142 7dbc 4d83 883d fe0a 143d 54c3 953d
00000100: 41e6 263c 2da3 173e 1164 173e e079 c33c
00000110: 94af 813d 2f5c 3e3d dca7 f33d df9b 973d
00000120: b6a9 8cbd dcaf c0bc 97c8 d73b 9f06 873d
00000130: 9334 4a3e 58a8 713c f45e 3e3e a55a 0c3e
00000140: 404b 463e 8431 083e b676 a93d e99c ce3d
00000150: 7e52 0e3c f9c4 5f3d 492b 093e 8387 a43d
00000160: 0ebc bd3d 0019 643e 935d f23d a4cd 653d
00000170: 6e28 203c 1e7e 9e3d 33af c73d 8840 393d
00000180: fd1f 69bd b245 633c 41d7 7b3c 812c 403e
00000190: 7688 c83d 14f3 e03d ff77 f93d 965b 403e
000001a0: d700 203e d4a2 383d de14 3d3d f3f4 a53d
000001b0: 21ba 603d d203 f93d c07d b73d c544 023e
000001c0: 27bd 253d 314f 343e c1f6 703d c544 cd3d
000001d0: 2b13 173e 4a9a e13d 94c6 0f3e c814 e73d
000001e0: 45f7 cc3d 728b ad3d 4551 0a3e 071a ab3c
000001f0: 95c8 bebc fd70 4e3d 3dd5 f63d 45f0 9f3d
00000200: 6255 d13d 1e90 08bd 7af3 243c 0373 243e
00000210: 930f 1ebd 3e7a ed3d a042 963d d551 063e
00000220: 2125 ec3d 6786 9e3d 2bfb 513e 350a d53d
00000230: 7f2d 3ebd de4a ae3c 5b0d 9d3e 0a59 133d
00000240: 2491 893d 3b83 283e facb ab3b cd5a ea3d
00000250: 8476 df3d 636b d83d 3654 ff3d c5ea 8e3c
00000260: 4547 c83d fcb7 853c 5ab5 2c3d 9d4d f03d
00000270: 238b 3f3d a8cb f33d b7fb 9d3d 654a 813d
00000280: 45fb 623d d086 5e3c 2c67 bf3d 2797 363e
00000290: 4ddc 923d 218f adba 4799 07bc 8399 703e
000002a0: 0b9e 833c 80f9 8b3c 0b8a 483e 371d f23d
000002b0: a66f c33d 445d c13d dfaf 203e 7af0 473d
000002c0: 3d0c 20bd 19b0 f93d d6ee ba3d 0068 623d
000002d0: 2443 b23d 0070 263e c15b 6b3d 76a3 bc3c
000002e0: 305f 093e 7b81 063c 1f65 a53d cad6 093d
000002f0: bd47 363d 644f a83d 6b89 96bc 4618 633e
00000300: 96db 403e 1e0c 313d 437b c63d a3ef e53d
00000310: 8615 3b3d c470 c13d 04cb 903d 0ce1 903d
00000320: 1eda e23d c449 f73d 57a9 5a3d 09e5 203d
00000330: 8893 06bd 9dbb c43d 3bf7 ce3d 9944 ac3d
00000340: 3e71 fe3c 23b1 cf3d 5219 b2b9 3ab7 e63d
00000350: 4d5d 93bd 769f a53d 76d3 4c3d 8be7 7b3d
00000360: 490c df3d fded 3c3e aad2 9d3d 7caf ba3d
00000370: 2709 b9bd d61c a33d f237 243e ad22 fa3c
00000380: ef14 433d 11f3 9c3d 8b80 d73d 5022 103d
00000390: 853b 893d 43d1 d43d f94c 4e3d 7a70 1f3d
000003a0: f6ed c03c 45e1 cd3d 555e 9b3d b077 8b3d
000003b0: ebe2 d13d 14df c8bc 2117 373e ba3e 023e
000003c0: 7307 f2bc df2e 963d ef4b 93bd c0d9 033e
000003d0: 7bcf 9d3c 8262 0d3e 7465 a63d 6ac1 093e
000003e0: 794c c93d b8d9 2f3d f79a 2e3c bcc3 5a3e
000003f0: 3342 06bd d90d 113e 9ecf c63c 196f 083e

fc2.bias f4 [1650]
0.097702906 0.000816739 -0.02889428 0.054164 0.12629579 0.035424676 0.06771634 0.14542761
0.12273499 0.21008173 0.15107508 0.3110758 0.081468515 0.2373733 0.23372012 0.08969909
-0.009423794 0.08500093 0.111115426 0.010044769 0.12924725 0.28374228 0.19680811 0.054830283
0.045624092 0.1328369 0.08827002 0.23412277 0.14739047 0.18757007 0.039783776 0.08295371
0.034887254 0.08919409 0.07658791 0.12768331 0.10048323 0.091349855 -0.0024079375 0.1366189
0.033826433 0.16210127 0.12332325 0.027080005 0.072123565 0.10460927 0.096971914 0.25176626
0.042875286 0.24416 0.02684695 0.08516159 0.13569392 0.08955619 -0.0075240256 0.1757756
0.087570846 0.047464963 0.15437998 0.12668888 0.16329846 0.071854666 0.10974786 0.37943643
0.039022524 0.08501779 0.08870625 0.094529085 0.1814184 0.18407518 0.0020985038 0.06021886
0.19454238 0.09317374 0.13363905 0.16827329 0.016398968 0.047768544 0.27570203 0.123278625
0.101634726 0.11767549 0.21582486 0.08625649 0.13032736 0.11379782 0.14727244 0.011661318
0.20035519 0.030958988 0.11589733 0.0587662 0.1320744 0.055615213 0.17173152 0.16269611
0.07936066 0.38960862 0.08135406 0.16022788 0.03210356 0.083478704 0.021040287 0.09070969
0.11269289 0.14339244 0.035109602 0.020453079 -0.038555007 0.038290925 0.08400972 0.0601124
0.17682928 0.23799433 0.058823198 0.07251187 0.06534914 0.14990099 0.12330565 0.0029023264
0.03719413 0.05752459 0.07074386 0.20485641 0.05713369 0.07097057 0.31189448 0.12256624
0.08917394 0.028619606 0.11286021 0.13092537 0.17739622 0.21310489 0.11075241 0.15510418
0.16610412 -0.009799142 0.16674481 0.13266125 0.14346524 0.0556556 0.25458407 0.1400244
0.007126295 0.075698175 -0.034407493 0.16483302 0.119418904 -0.008656609 -0.030421577 0.09483381
0.031385157 0.011978774 0.10432734 0.11884302 0.11585543 0.0705495 0.12700935 0.12617576
0.08831153 0.05814222 0.046121236 0.051691636 0.13157603 0.18757027 0.01696409 0.0727989
0.29182094 0.00095881877 0.15311596 0.17256051 0.32619023 0.26907825 0.12423836 0.08251674
0.14477582 0.34511837 0.12179745 0.11599275 0.20446469 0.10343035 0.15712184 -0.05811216
0.23897071 0.075833246 0.24485026 -0.007572595 0.14267609 0.264281 0.30211306 0.34359092
0.201312 0.18918261 0.19467863 0.13188258 0.25382105 0.17376575 0.19865602 0.14039548
0.009432107 0.08051323 0.19861484 0.055581257 0.28793633 0.09120711 0.04208596 0.05885902
0.2213252 0.094349556 0.055093873 0.08955507 0.13540448 0.09328365 0.10622152 0.11061592
0.0013674693 0.10295284 0.042522285 0.09287471 0.060270473 0.22984394 0.23644413 0.060265373
0.13019788 0.1497361 0.13485005 0.16937089 0.14539084 0.153689 0.027434086 0.03695968
0.10681795 0.18348269 0.006951956 0.022746487 0.13166589 0.06267384 0.11529633 -0.04418418
0.09995165 0.12352648 0.1412011 0.14866148 0.18904649 0.019819086 0.035504658 0.10245417
-0.0347953 0.18498704 0.14614294 0.08078817 0.13534863 -0.007497458 0.085550085 0.110295
00000000: 7618 c83d 6d1a 563a b2b3 ecbc 12db 5d3d
00000010: af53 013e 7719 113d ddae 8a3d faea 143e
00000020: 7c5c fb3d aa1f 573e 6db3 1a3e 5445 9f3e
00000030: f7d8 a63d fd11 733e 5454 6f3e 28b4 b73d
00000040: 4266 1abc f814 ae3d 7c90 e33d d192 243c
00000050: 6459 043e ab46 913e 1188 493e b895 603d
00000060: 54e0 3a3d 6506 083e eac6 b43d e1bd 6f3e
00000070: 87ed 163e 5e12 403e 50f4 223d a2e3 a93d
00000080: f0e5 0e3d 64ab b63d 1fda 9c3d 6abf 023e
00000090: 27ca cd3d a215 bb3d 7dce 1dbb d3e5 0b3e
000000a0: 968d 0a3d e0fd 253e e690 fc3d e3d6 dd3c
000000b0: 85b5 933d 633d d63d 3699 c63d 82e7 803e
000000c0: ff9d 2f3d 1405 7a3e 23ee db3c 3369 ae3d
000000d0: 59f3 0a3e 3c69 b73d 1a8c f6bb 85fe 333e
000000e0: 5858 b33d 9f6a 423d c915 1e3e bbba 013e
000000f0: b637 273e 8a28 933d 7cc3 e03d 7e45 c23e
00000100: 15d6 1f3d cf1d ae3d 9fab b53d 7798 c13d
00000110: bfc5 393e 347e 3c3e 0d87 093b 0da8 763d
00000120: 1e36 473e e0d1 be3d add8 083e d54f 2c3e
00000130: 2157 863c f3a8 433d d128 8d3e 8179 fc3d
00000140: de25 d03d d9ff f03d 3101 5d3e 3ea7 b03d
00000150: 8974 053e d50e e93d 96ce 163e 1d0f 3f3c
00000160: e929 4d3e b49d fd3c 945b ed3d d4b4 703d
00000170: 833e 073e c7cc 633d 63da 2f3e cf99 263e
00000180: d787 a23d c87a c73e f59c a63d c712 243e
00000190: 067f 033d e2f6 aa3d ae5c ac3c 00c6 b93d
000001a0: 88cb e63d 78d5 123e 16cf 0f3d 378d a73c
000001b0: dbeb 1dbd f2d6 1c3d 4a0d ac3d 6c38 763d
000001c0: bc12 353e c9b4 733e 98f0 703d 1a81 943d
000001d0: c5d5 853d a57f 193e ac87 fc3d f534 3e3b
000001e0: df58 183d e89e 6b3d 28e2 903d e1c5 513e
000001f0: 0405 6a3d 0559 913d a2b0 9f3e 0204 fb3d
00000200: d4a0 b63d aa73 ea3c 4123 e73d 4d11 063e
00000210: 5ba7 353e 2b38 5a3e 29d2 e23d a1d3 1e3e
00000220: 3317 2a3e 958c 20bc 27bf 2a3e 5ad8 073e
00000230: 8de8 123e 20f7 633d d858 823e 8e62 0f3e
00000240: b283 e93b a507 9b3d dfee 0cbd fdc9 283e
00000250: e691 f43d 73d4 0dbc ac36 f9bc 3b38 c23d
00000260: b98d 003d 9f42 443c 93a9 d53d f863 f33d
00000270: 9d45 ed3d 427c 903d bd0e 023e 3834 013e
00000280: addc b43d 8926 6e3d 9fe9 3c3d 9cba 533d
00000290: debb 063e 6c12 403e 46f8 8a3c 9717 953d
000002a0: 8e69 953e 3d59 7b3a 6eca 1c3e b4b3 303e
000002b0: 6802 a73e a0c4 893e ae70 fe3d 89fe a83d
000002c0: 1d40 143e 5bb3 b03e f170 f93d 9b8d ed3d
000002d0: 315f 513e 4bd3 d33d 8ce4 203e 0407 6ebd
000002e0: bdb4 743e 764e 9b3d 07ba 7a3e 8823 f8bb
000002f0: ae19 123e d74f 873e 90ae 9a3e 26eb af3e
00000300: bc24 4e3e 16b9 413e d659 473e 3a0c 073e
00000310: d5f4 813e a6ef 313e 7c6c 4b3e d5c3 0f3e
00000320: 2089 1a3c 1fe4 a43d b061 4b3e 2ca9 633d
00000330: 646c 933e cbca ba3d 5462 2c3d 2816 713d
00000340: 13a3 623e 573a c13d 1daa 613d a668 b73d
00000350: 79a7 0a3e 800b bf3d ab8a d93d 998a e23d
00000360: a83c b33a f0d8 d23d d92b 2e3d 1935 be3d
00000370: 2cde 763d 365c 6b3e 691e 723e d3d8 763d
00000380: 9852 053e 6c54 193e 2216 0a3e 906f 2d3e
00000390: 56e1 143e a660 1d3e 73bd e03c 0963 173d
000003a0: 5fc3 da3d e3e2 3b3e 3ccd e33b d756 ba3c
000003b0: 6cd3 063e 245b 803d 7b20 ec3d 79fa 34bd
000003c0: 73b3 cc3d 73fb fc3d 0597 103e b73a 183e
000003d0: 6795 413e a35b a23c 556d 113d 7ed3 d13d
000003e0: 8485 0ebd 3e6d 3d3e 7fa6 153e 4574 a53d
000003f0: d598 0a3e 3cad f5bb e234 af3d 58e2 e13d
