ae_main_1M.pt (torch, 490655 bytes, 4 tensors)

fc1.weight f4 [16, 3706]
000000 80 c5 01 3c 79 eb b7 3c 9d 84 cd 3c 04 23 5a bb
       0.007920623 0.02245115 0.025087649 -0.003328503
000010 da a2 19 3c ec fb 99 3c 62 76 8d 3c 70 aa ac b9
       0.009377206 0.018796884 0.017268363 -0.00032933382
000020 2c 59 8b 37 c5 44 b2 ba 51 93 5e bc f4 14 20 3c
       1.6611615e-05 -0.0013600817 -0.013584928 0.009770621
000030 59 d6 55 bb 9e 65 20 3c 81 87 29 3b be 3f 4c bc
       -0.0032628982 0.009789852 0.002586812 -0.012466369
000040 7a 1b 09 3d 4b cb 1e bc 32 f4 c4 3b 5b 53 85 bb
       0.03347347 -0.0096920235 0.0060105557 -0.0040687746
000050 24 2c 55 bc 43 84 d8 3b 19 a1 a6 b9 ef 15 06 3c
       -0.013011012 0.0066075637 -0.00031782014 0.00818394
000060 b1 30 09 3d e5 9d 38 bc 05 e9 ea bb 83 38 5d bc
       0.0334937 -0.011268114 -0.0071688914 -0.013502243
000070 d0 dc a4 37 12 c6 31 3a b7 38 ba 3a 75 fb ff 3b
       1.9653147e-05 0.0006781529 0.0014207576 0.0078119584
000080 3c 2a 46 3b 4b bf 85 3c 4b 9c f9 ba b3 85 04 3d
       0.0030237576 0.016326567 -0.0019043771 0.032354068
000090 8d 9a 00 bb 03 b1 e8 b9 77 a0 86 3c 73 5a 2e 3c
       -0.001962337 -0.00044382372 0.016433937 0.010641682
0000a0 2a 01 e0 b9 43 f4 a1 bb 97 e7 13 3c 76 4f 49 3c
       -0.00042725477 -0.0049424483 0.009027383 0.012287011
0000b0 3b e7 6c bb 7b bf 5a 3b e5 5a e6 3b 90 da e8 bb
       -0.0036148566 0.0033378291 0.0070298784 -0.007106133
0000c0 ea 15 88 39 57 16 86 3d 0b d4 64 bb 45 05 ec bb
       0.0002595627 0.0654723 -0.0034916427 -0.0072027766
0000d0 ae 46 15 3c 95 7c 30 bb c3 05 e7 3a 5f bf 56 bb
       0.00911109 -0.0026929725 0.0017625618 -0.0032767875
0000e0 48 00 92 3c 84 e4 c2 bb 5a 61 15 3c 66 e8 0f ba
       0.0178224 -0.0059476513 0.009117449 -0.0005489647
0000f0 fd 90 1e bc c6 a9 a3 bb ab a8 35 3b 17 a2 52 3b
       -0.009678123 -0.004994604 0.0027718942 0.003214007
000100 b5 6c 68 bb dc be 04 bb 01 d5 c3 bb 97 95 42 3c
       -0.0035465185 -0.0020255363 -0.00597632 0.011876485
000110 0e 08 34 bb 97 af eb 3b 9b b4 d9 bb a0 05 0e 3c
       -0.0027470621 0.007192563 -0.0066438443 0.008668333
000120 f6 af a2 bb f5 e9 00 3b c3 6d 03 bc 8b 6f 8e 3a
       -0.004964824 0.00196707 -0.008021775 0.0010866983
000130 17 42 f6 3a 39 3a ea ba b8 f0 3a 3b 71 85 ce b9
       0.0018788007 -0.0017870135 0.0028524827 -0.00039390803
000140 84 94 26 b9 96 76 e5 3b d4 20 4f bb 6b b4 37 3b
       -0.0001588632 0.007002662 -0.003160526 0.0028031121
000150 d3 88 0f 3c f1 06 9e bb b1 34 ad 3b eb af 5d bc
       0.008760649 -0.004822605 0.0052858223 -0.013530712
000160 6d 72 0c 3a 29 6f c6 ba e8 1e 6b 3b 15 4f 1e bc
       0.0005357627 -0.001513933 0.0035876576 -0.009662409
000170 5a 48 03 3c 10 50 5a 39 09 b4 66 3a 03 64 5a b9
       0.008012855 0.00020819926 0.0008800631 -0.00020827357
000180 b3 7f 09 3b ad 0e 87 ba bb 3a d0 bc cd 29 a7 3b
       0.0020980656 -0.0010304056 -0.02541863 0.0051014186
000190 22 52 19 3b 32 ea 25 bc b1 68 34 3c d9 7a 04 bc
       0.0023394902 -0.010126637 0.0110112885 -0.00808593
0001a0 d2 aa bf bc 73 17 0c 38 1b 56 04 3e 94 04 b7 3d
       -0.023396883 3.340044e-05 0.12923472 0.0893642
0001b0 ab 6d e6 3b 80 61 b0 bb 4e fe dc 39 19 6b ed 39
       0.0070321164 -0.0053827167 0.00042151142 0.00045283957
0001c0 15 4d a5 bb 8c ad 99 bc 18 8a 94 b9 4a 6a 54 ba
       -0.0050445893 -0.018759511 -0.00028331648 -0.00081029965
0001d0 24 17 81 3b ac d7 6d bc c9 c2 9e bc 55 b3 90 3a
       0.003939526 -0.014516752 -0.01937999 0.0011039773
0001e0 90 51 58 bc d6 37 87 bb 14 24 10 bb 59 5e 4a 3b
       -0.01320304 -0.004126529 -0.002199416 0.003087899
0001f0 4e 79 07 ba c0 1c 0b 3b 2b 42 b0 ba e2 ad 24 3a
       -0.0005167917 0.0021226853 -0.0013447454 0.0006282014
000200 1d e0 30 bb 31 18 ff 39 91 e3 44 3b 8d 61 3e bb
       -0.002698905 0.00048655414 0.0030042867 -0.0029049844
000210 92 ed 02 3b 3c fd c8 b8 d4 05 3f ae a4 4b ff bb
       0.0019978029 -9.583912e-05 -4.343355e-11 -0.0077909995
000220 70 e6 c5 3b 73 e1 84 b8 ba 54 5a 3c f2 73 ca bb
       0.006039433 -6.336244e-05 0.013325864 -0.0061783725
000230 ae 03 48 ba b5 d6 67 bb cc 86 b1 37 b8 55 5b bb
       -0.0007629943 -0.0035375778 2.1162814e-05 -0.003346784
000240 1d 7e 1f 3d e4 08 48 3b 81 34 d8 ba e8 12 36 ba
       0.03893863 0.0030522877 -0.001649514 -0.0006945566
000250 b1 6d 3e 3c 6c 8c 87 ba cb f0 bf bb 92 5c 28 3c
       0.011622832 -0.0010341532 -0.005857562 0.010275977
000260 43 91 0f bc ab a6 4d bb ef e7 a4 3b 86 64 80 3a
       -0.00876266 -0.003137986 0.0050325315 0.0009795583
000270 ad ff 8d 3c a8 a6 f9 bc 1d 23 cb 3c b8 a8 15 3c
       0.01733383 -0.030474976 0.024797017 0.009134464
000280 ca c2 65 bb 04 94 8c ba 2a cb b2 3b 34 68 da 3a
       -0.003505873 -0.0010725264 0.005456348 0.0016663135
000290 29 7c a2 3c 81 d5 43 bb 0e a9 42 bc 0a 5a 54 bc
       0.019834595 -0.0029881897 -0.011881126 -0.01296092
0002a0 6c e1 5a bb 2d ab 10 3c 79 27 1a 3b 4c 28 78 ba
       -0.0033398522 0.008829874 0.0023522063 -0.0009466454
0002b0 a3 39 d5 39 66 44 9c 39 fd 4b 6c 3c de 41 e2 ba
       0.0004066947 0.000298056 0.014422414 -0.0017262062
0002c0 99 55 8d 3b 47 e7 73 bb 97 87 10 bb 56 27 fb ba
       0.0043131826 -0.003721671 -0.0022053474 -0.0019161503
0002d0 5a d3 17 bc 7f 68 55 bb 8f 36 55 3b 31 3c c4 3a
       -0.009266699 -0.0032563505 0.003253374 0.0014971552
0002e0 0c c2 7c 3b c8 05 ae bb db 35 4f 3a 74 50 f2 ba
       0.003856781 -0.005310748 0.00079044484 -0.0018487112
0002f0 9f b0 c0 bb 4b fd 45 bb 4b f7 d6 bb 64 fd 24 37
       -0.00588043 -0.0030210789 -0.0065602413 9.834159e-06
000300 04 4a a6 bc 47 1e c6 3b 7b 41 5d b9 79 56 1b bb
       -0.020298965 0.00604609 -0.00021100596 -0.0023702665
000310 c2 90 90 3b c8 66 f3 bb b3 2f f4 3b 95 f0 f0 3a
       0.0044117877 -0.007428024 0.0074519753 0.0018382246
000320 85 e9 0b 3c e1 33 6e bb 41 ce 04 3c 2c ef e5 3a
       0.008539562 -0.003634684 0.008105815 0.0017542592
000330 91 3d 30 bc ce a2 e5 3b 5c 8c 07 3b 79 7e 68 3c
       -0.010756866 0.007007933 0.0020683026 0.01419031
000340 6b db ee 3a 9d 4d 69 3b f0 e9 70 3b a2 62 10 bc
       0.0018223351 0.003559924 0.0036760531 -0.008812578
000350 df 6f 9c 3a 6c 45 e1 bb 99 b7 ab ba 42 9b 7b ba
       0.0011935196 -0.006874731 -0.0013100981 -0.00095980254
000360 c7 bc 9e ba 3a 98 2b 3c c9 19 cc 3b 2c 02 9c b6
       -0.0012110703 0.010473305 0.00622866 -4.649415e-06
000370 16 d2 c7 bb 64 0d 70 39 19 4e 05 3a 2e d4 0b 3c
       -0.0060980422 0.00022893172 0.0005085185 0.008534474
000380 8c 19 21 3c 90 24 44 3c 66 b7 5b 3c bc 25 d1 3a
       0.009832751 0.011971608 0.013410425 0.001595668
000390 ba e5 f0 bb 14 36 f5 ba 9f 93 63 3b 3e 71 d1 bb
       -0.0073516043 -0.0018708133 0.003472544 -0.0063916733
0003a0 5e 79 02 bc f1 c3 cc 3b 42 28 4e ba 63 b9 75 3c
       -0.0079635065 0.006248944 -0.0007864275 0.014997813
0003b0 44 d9 16 3b 96 6e 17 bb b2 db 78 3b 4d e8 13 3d
       0.0023017684 -0.0023106686 0.0037972745 0.03611021
0003c0 da 6c 25 ba 67 f1 23 bc c7 80 d5 bb 09 0a b1 bb
       -0.00063104706 -0.010006285 -0.0065155956 -0.0054028076
0003d0 ca 19 c4 bb 21 10 08 3b 60 0c d8 3c 6b a5 be 3a
       -0.0059845196 0.0020761567 0.026373088 0.0014545148
0003e0 61 a7 a9 3a d2 4e 6b bc e6 25 e6 bb bb 08 34 bc
       0.001294356 -0.014362054 -0.007023561 -0.01098841
0003f0 cf 21 98 bb ac f8 2e 3e da aa 4c 3b 87 ec 50 bb
       -0.004642702 0.17087048 0.0031229765 -0.0031879263

fc1.bias f4 [16]
000000 49 d9 6e 3f f7 99 c7 3f a4 63 c9 3f a0 c4 23 3f
       0.933003 1.5593861 1.5733533 0.639719
000010 a2 ec f2 3f 81 91 29 bf e6 26 f8 3f 40 c9 07 3e
       1.8978465 -0.66237646 1.9386871 0.13260365
000020 ce 23 88 3e 38 b3 d8 3f 0c 19 b4 3f 02 c8 c9 3f
       0.26589817 1.6929693 1.4070144 1.5764163
000030 29 37 f1 3f 7e b8 06 3f ae 25 b9 3f 40 63 13 3f
       1.8844959 0.5262526 1.4464624 0.5757332

fc2.weight f4 [3706, 16]
000000 39 03 ad 3c ba 8a d5 3c 42 51 05 3d fd 28 1f 3e
       0.0211197 0.026067127 0.032548197 0.1554298
000010 9a e2 54 3d 10 e0 78 3e 1f 2b 66 3d 41 00 e0 3d
       0.051973917 0.24304223 0.056193467 0.109375484
000020 15 bc ec 3d 6b 98 01 3d c8 a0 bf 3c 84 36 c9 3c
       0.11559311 0.031639498 0.023392096 0.024562128
000030 93 dc 39 3d e5 67 70 bb 06 cd f1 3c 0c 13 cc 3c
       0.04537637 -0.003668302 0.029516708 0.024911426
000040 ba 89 75 bb ba dc 85 3c 28 a8 b4 3c a2 53 15 3e
       -0.0037466125 0.016340602 0.02205284 0.14582685
000050 0a ed 36 3d 7a 0f ec 3d c6 94 49 3d 5c c0 12 3e
       0.04465965 0.115263894 0.049214147 0.14331192
000060 8f d5 7f 3e e9 21 d2 3c 42 b7 1d 3c b8 44 98 3c
       0.2498381 0.025650935 0.009626212 0.018587455
000070 24 8e 25 3d 3e 62 4f bd 77 e3 4b 3c 90 e4 bd bc
       0.04041876 -0.0506308 0.012444369 -0.023180276
000080 6c 1c 1a 3b 38 ff e3 3c 05 c3 00 3d a6 2f 4b 3c
       0.0023515476 0.027831659 0.031435985 0.012401497
000090 98 76 30 3d 90 43 49 3d 54 5b 38 3d 64 ad 18 3d
       0.04308185 0.0491367 0.045008972 0.037274733
0000a0 23 85 a1 3e b8 5d 17 3d ee 98 a5 3c b8 62 f8 3c
       0.31546888 0.03695461 0.020214524 0.03032051
0000b0 0e c9 2a 3d d2 3d 8e bc 47 d2 b0 3c 6f 21 16 bc
       0.041695647 -0.017363463 0.021584643 -0.009163245
0000c0 92 7c d9 3c 59 0f a4 3c ef 31 aa 3c 83 b8 fd 3d
       0.026548658 0.02002685 0.020775763 0.123887084
0000d0 92 b8 9f 3c 13 31 8c bd 66 a1 9f 3c 0a be 86 3e
       0.01949719 -0.06845298 0.01948614 0.26316863
0000e0 1f ae 77 3e 36 f0 a5 3c 59 e5 ad 3c 15 5b a2 3c
       0.24187516 0.020256143 0.021227526 0.019818822
0000f0 2b 45 9b 3c 4a 61 a6 3c e9 ab ad 3c cd 2d fe 3c
       0.01895388 0.020310063 0.021200137 0.031027699
000100 b1 a7 11 3b 7c b7 9a 3c 49 ee ae 3c d1 ac e7 3c
       0.0022225196 0.01888632 0.021353858 0.028280647
000110 4f 1e f9 3c b3 be 39 3d 60 97 01 3d 6a 52 23 3e
       0.03040996 0.04534788 0.031638503 0.15949407
000120 e3 bb b1 3e 9d 03 ce 3c 57 72 61 3c 32 b4 a9 3c
       0.3471366 0.025148207 0.013760171 0.020715807
000130 83 38 f0 3c a3 05 70 3c 6b a5 68 3c 99 8e a2 bb
       0.029323822 0.014649781 0.014199595 -0.0049608466
000140 63 52 83 3b 43 95 27 3d 2f c8 26 3d ed 1d 15 3e
       0.004007624 0.04091383 0.040718254 0.14562197
000150 f4 36 a8 3d 1c 27 21 3d 14 0c b3 3d fb 8c 8e bd
       0.082136065 0.03934394 0.08742538 -0.06960484
000160 a9 f1 c6 3d 6b 71 57 3d 62 e0 e9 3c 82 bd 2e 3d
       0.09714062 0.0525984 0.028549377 0.042661197
000170 42 6f a5 3d ad 12 01 3d de 2c f7 3c bc 8b 67 bc
       0.08077861 0.03151195 0.030172762 -0.014132436
000180 df a8 87 bc d0 fc e5 3c eb e1 0a 3d 5f ac 06 3e
       -0.016560016 0.028074652 0.03390686 0.13151692
000190 f1 95 80 3d ae 79 0c bd 7a 03 89 3d dc 7d 32 3e
       0.06278599 -0.03429573 0.06690116 0.17430824
0001a0 26 74 67 3e 5c 6d 37 3d bc 4d 78 3c 99 e6 04 3d
       0.22602901 0.044782028 0.015155252 0.032446478
0001b0 9d f7 70 3d 89 29 92 bc 25 88 97 3c 65 d8 a8 bc
       0.058829892 -0.017842071 0.018497536 -0.020610997
0001c0 55 4c d1 3c c3 95 e3 3c d5 fb e8 3c 90 03 00 3e
       0.025549093 0.027781373 0.028440395 0.12501359
0001d0 3e 95 0b 3d 19 f5 4a bc 89 f0 0e 3d 83 5c 9b 3d
       0.034077875 -0.012387537 0.03489736 0.075860046
0001e0 e6 21 90 3e 81 37 f9 3c c1 1f d8 3c d9 c9 e9 3c
       0.28150862 0.030421974 0.026382329 0.028538631
0001f0 6c c3 08 3d 4b ab e5 3c e4 a3 da 3c b0 10 c9 3c
       0.033389494 0.02803578 0.026689477 0.02454409
000200 00 25 3f bb 07 9c 49 3c 91 93 22 3c 28 25 28 3e
       -0.002916634 0.012305266 0.009922878 0.16420424
000210 69 4d d3 3c 2d 4a 0f 3d b4 76 e0 3c 6e 3e 5a bd
       0.025793748 0.03498285 0.027400352 -0.053282194
000220 f5 d3 da 3e 19 83 7c 3c 6f 82 da 3b 42 bb 33 3c
       0.42739835 0.0154121155 0.006668381 0.010969939
000230 67 d8 c9 3c 25 6d 6c 3b 85 be 21 3c 04 3e 27 bb
       0.024639321 0.0036075797 0.009872084 -0.0025519142
000240 89 2e da 39 e5 af e8 3c e9 91 e7 3c 55 41 dc 3d
       0.00041614872 0.028404186 0.028267818 0.107546486
000250 ef 85 71 3d 9d fb 36 3e dd c2 7b 3d 3a bc 7f bd
       0.05896562 0.1786942 0.061465133 -0.062435366
000260 db fd 73 3e 73 fe 16 3d 42 a0 97 3c 78 57 de 3c
       0.23827307 0.036863755 0.018509034 0.027141318
000270 bf 93 59 3d 96 0f 98 bc a2 65 cb 3c e7 63 89 bc
       0.053119417 -0.01856212 0.024828736 -0.01677127
000280 61 0f d1 bc 36 99 a5 3c 03 30 c3 3c 4f 8e b2 3d
       -0.025520029 0.020214658 0.023826605 0.087185495
000290 54 84 75 3d 6e 4c 0b 3e c5 02 89 3d 59 4b 1b 3e
       0.05994065 0.13603374 0.06689981 0.15165462
0002a0 41 00 5f 3e 26 4e 1d 3d 8c d5 f7 3b 2a d5 c4 3c
       0.2177744 0.038404606 0.0075632986 0.024027426
0002b0 47 c2 6a 3d b4 d9 0d bd b9 09 27 3c de 31 30 bd
       0.057314184 -0.034631446 0.010195189 -0.043016307
0002c0 5b 92 b6 3c fc 81 a1 3c 8b 37 ac 3c 81 81 09 3e
       0.022286585 0.019715302 0.021022579 0.13428308
0002d0 f3 3d a9 3c 4a 70 ee bc 93 e3 b0 3c 8d 1e 73 3d
       0.020659423 -0.029106278 0.02159289 0.059355307
0002e0 b9 b6 c6 3e 17 b0 a6 3c 6b b1 9e 3c 10 d9 a4 3c
       0.3881128 0.020347638 0.019371709 0.020123035
0002f0 e8 21 a6 3c 01 22 b5 3c 3d 0d 9e 3c 8b af 0a 3d
       0.02027984 0.02211094 0.019293422 0.033858817
000300 e3 76 ef 3c 12 11 ac 3c 9f 6b c0 3c 57 4d ea 3d
       0.029231494 0.021004234 0.023488818 0.11440533
000310 5c 80 d0 3c 73 5f 6e 3d 3f e4 d7 3c 56 4f 50 3e
       0.025451832 0.058196496 0.026353953 0.20342764
000320 c9 7d 6d 3e d6 18 ba 3c 03 24 a9 3c 3c 37 b4 3c
       0.23192514 0.02271692 0.020647055 0.021998994
000330 38 bb c9 3c be ae 2f 3d 53 ef b2 3c 90 cd 27 3d
       0.024625406 0.042891257 0.021842634 0.040967524
000340 72 67 e0 3c 58 c2 2a 3d 96 9e 2a 3d 7b e4 a5 3d
       0.027393077 0.041689247 0.041655146 0.0810022
000350 cb 1a 58 3d ee 35 73 3d 7c e2 60 3d a5 0a 15 3e
       0.052759927 0.059377603 0.054903492 0.14554842
000360 39 5b ac 3c 29 9a 3b 3d 90 50 1c 3d 30 1c 30 3d
       0.021039592 0.045801315 0.038162768 0.04299563
000370 0c 63 59 3d 3b b8 04 3d db a9 19 3d 6a 61 a7 3c
       0.053072974 0.03240226 0.037515502 0.020432193
000380 7a 3e 22 3c aa b3 0b 3c 9e b3 0f 3c 5e f4 47 3e
       0.009902591 0.008526722 0.008770851 0.19526812
000390 cf 92 2f 3c e5 e0 b0 3c 58 92 32 3c 1a d4 54 3d
       0.010716154 0.021591613 0.010899149 0.05196009
0003a0 fc a4 f0 3e 80 ee 12 3c f6 ba fc 3b e4 3e 0b 3c
       0.47000873 0.008967996 0.007712717 0.008498881
0003b0 8c e1 25 3c 72 43 16 3b 5c ec 05 3c 24 64 c9 3c
       0.010124575 0.0022928384 0.008174028 0.024583884
0003c0 ac 65 16 3d d0 c2 1f 3d 55 74 22 3d b9 29 64 3e
       0.036718056 0.039004147 0.039661724 0.22281541
0003d0 65 44 5d 3d 6a 07 10 bb fb 4e 67 3d 9a bb d8 bd
       0.054020304 -0.0021977075 0.056471806 -0.10582657
0003e0 0d 5f 0e 3e d3 69 32 3d 21 2b 12 3d 62 f6 20 3d
       0.13903446 0.043557953 0.035685662 0.03929747
0003f0 60 5a 5d 3d b1 5f 77 3d 3f 66 14 3d 18 6f 51 3d
       0.054041266 0.060393993 0.036230322 0.051131338

fc2.bias f4 [3706]
000000 eb 27 21 3e 26 3c ec 3d db 8d a8 3d 4a 59 a9 3c
       0.15737884 0.1153491 0.08230182 0.02067246
000010 a6 4f 3a 3d 7b 28 3d 3e 34 04 fd 3d 26 51 4b 3d
       0.045486115 0.18472473 0.12354317 0.049637936
000020 c8 b3 5e 3d 41 49 f2 3d c9 38 17 3e 05 cd d3 3c
       0.05437067 0.11830378 0.14767756 0.025854597
000030 31 89 62 3d 0e 3b a3 3d 36 3c 90 3c 15 30 cf 3d
       0.055306617 0.07970248 0.017606836 0.10116593
000040 bf 16 28 3e 73 2c 8f 3d 06 f4 7b 3b 1b 82 94 3c
       0.16414927 0.069909 0.003844501 0.018128445
000050 56 b9 a8 3d d9 d4 9f 3d b7 05 67 3d 86 06 81 3d
       0.08238475 0.07804269 0.056401934 0.06300072
000060 dc 56 00 3d 8e c8 6e 3d e9 e8 d5 3c f3 6c bd 3d
       0.031332836 0.058296733 0.026112037 0.09249296
000070 f5 88 ff 3d 7c 93 95 3d 27 b7 cf 3c d9 c4 a7 3d
       0.12477294 0.07303521 0.025355889 0.081918426
000080 50 82 1e 3d 43 f5 b9 3d 61 11 5e 3d e5 2b d1 3d
       0.038698494 0.09079983 0.054215793 0.1021345
000090 54 70 8d 3d 2d 19 20 3d 53 d9 bb 3d 9b aa 99 3d
       0.069061905 0.03908651 0.09172311 0.075032435
0000a0 7f 89 b5 3d 7b 25 57 3d 6f 4d 8f 3d d3 49 9d 3d
       0.08864116 0.05252598 0.06997191 0.076800965
0000b0 b9 c9 23 3d 39 83 31 3d 95 f9 25 3e 26 94 7a 3d
       0.0399873 0.043338034 0.16208489 0.06117644
0000c0 d9 2b 43 3d 87 56 7a 3e 30 7a ca 3d 4b 8f 8d 3d
       0.04764924 0.2444707 0.09886587 0.069120966
0000d0 2d df 47 3d ef ba d6 3c ff 4b e9 3c b4 0d 36 3d
       0.04879682 0.026212184 0.02847862 0.044446662
0000e0 64 b3 0f 3e 5a b2 ee 3c 42 30 58 3d 32 8c 7e 3d
       0.14033276 0.029137779 0.052780397 0.06214542
0000f0 be 0d b9 3d 1e a8 47 3d 9d 64 1f 3d 46 57 c5 3c
       0.09035824 0.048744313 0.03891431 0.024089467
000100 1a 98 04 3d 18 95 12 3d c1 26 61 3d 4b d7 a5 3d
       0.032371618 0.035786718 0.0549686 0.080977045
000110 90 87 07 3e e1 9e a3 3c e0 d9 0a 3d 06 df c3 3d
       0.13235307 0.01997322 0.033899188 0.09564023
000120 95 09 3b 3d 95 47 ad 3c 90 e1 50 3d e9 a5 45 3d
       0.045663435 0.021152297 0.050996363 0.048253927
000130 53 41 ee 3c d4 f3 f5 3c dd eb 89 3d 5d 77 78 3d
       0.029083883 0.030023493 0.067344405 0.06066071
000140 2c e4 90 3d e2 7f 5c 3d 52 f2 1d 3d de 7c 5f 3d
       0.0707477 0.053832896 0.038561173 0.054562442
000150 ec fb ae 3d 05 a8 4a 3c de e8 60 3d a8 8c 60 3d
       0.08544144 0.012369161 0.05490958 0.05482164
000160 91 e2 3c 3d 14 fe 66 3c a1 36 48 3c 92 fb 4d 3d
       0.046114508 0.014098663 0.012220056 0.050288744
000170 58 8e bc 3d e9 bb 52 3d 57 a3 99 3d 2b d4 db 3c
       0.092068374 0.051448736 0.07501858 0.026834568
000180 66 4e 29 3d 2a ba 4d 3d 88 8d 8f 3d c9 15 8a 3c
       0.041334532 0.050226368 0.07009417 0.016856091
000190 91 51 24 3d ca 2b 27 3e 63 6d 88 3d 38 90 8e 3d
       0.04011685 0.16325298 0.06661489 0.06961101
0001a0 1d cc d7 3c 9c 19 a9 3c 12 16 52 3e 26 08 6c 3e
       0.026342446 0.020642094 0.20516232 0.23049983
0001b0 f8 4f bd 3d 73 be 01 3d 13 b6 34 3d 6c 92 94 3d
       0.092437685 0.031675767 0.044118952 0.0725449
0001c0 32 de 38 3d cb 9e 94 3d 88 7e cc 3c 57 88 18 3d
       0.045133777 0.0725685 0.024962679 0.0372394
0001d0 3d e0 7a 3d 8a 5c 1e 3d ca c9 9e 3d 07 12 58 3d
       0.061249007 0.03866247 0.07753332 0.052751567
0001e0 1f e2 77 3d 50 3b ff 3c 38 22 96 3c 06 84 6e 3d
       0.06051838 0.031156212 0.018326864 0.058231376
0001f0 28 99 28 3d 1c 06 96 3d 9b f5 51 3d b7 1e be 3c
       0.041161686 0.07325384 0.05125962 0.023208005
000200 70 12 a7 3c 1c 39 89 3d db 73 a0 3c 03 3d 1f 3d
       0.020394534 0.06700346 0.019586494 0.038876545
000210 06 eb 32 3d 97 77 f7 3c c3 00 00 00 e4 64 38 3d
       0.043681167 0.030208392 2.73e-43 0.04501809
000220 d1 0f da 3d 4b 30 68 3c 5e d2 ea 3d 9d e7 d0 3d
       0.10647548 0.01417167 0.114659056 0.10200427
000230 3e 7a 65 3d 25 f5 6c 3d 55 e6 33 3d c9 93 87 3d
       0.056024782 0.057850976 0.043920834 0.06619985
000240 e5 56 e3 3d b9 8e fd 3d ca f5 82 3c 5c 5a 41 bb
       0.11100558 0.12380738 0.015986342 -0.0029503321
000250 92 11 89 3d cf c9 0e 3d b9 b4 57 3d 73 36 5b 3c
       0.066928044 0.03486043 0.052662585 0.013379681
000260 02 2b 16 3c 80 9d 40 3d 73 f3 27 3d 82 ba fe 3d
       0.009165527 0.047025204 0.041003656 0.12437917
000270 67 e8 28 3e d1 68 74 3d e5 8b ea 3d f5 f3 ea 3d
       0.16494904 0.059670273 0.11452464 0.11472312
000280 0c 5d e7 3c b9 a9 50 3d 52 ad 25 3d 98 bf cc 3a
       0.02824261 0.05094311 0.040448494 0.0015621064
000290 e4 e2 d3 3d 4c 02 53 3d 95 82 25 3d 7b d7 44 3c
       0.1034601 0.051515862 0.040407736 0.012014265
0002a0 e5 4e bc 3c fc f8 ae 3d 55 7d 88 3d 2b cb bb 3b
       0.022986839 0.08543584 0.0666453 0.0057310066
0002b0 ff d6 4a 3d bf b7 e6 3c 1f 9f d4 3d 04 39 fb 3b
       0.049521443 0.028163789 0.103819124 0.007666709
0002c0 fb 73 16 3d 86 01 47 3d 4f e1 68 3d 99 e9 60 3d
       0.0367317 0.048585437 0.056855496 0.054910276
0002d0 43 a6 35 3d 21 a5 d1 3c 52 1e 2a bc 9f 9f 47 3d
       0.044348013 0.025591435 -0.0103832055 0.04873621
0002e0 0b 47 87 3d 46 7d e0 3c 73 ef 24 3d 8e 28 44 3b
       0.06605347 0.027403485 0.04026742 0.00299314
0002f0 b1 31 b6 3d 71 16 c9 3c bc 97 02 3d 20 79 61 3d
       0.08896197 0.024546834 0.031882986 0.055047154
000300 e6 ea 40 3d d2 0d 87 3d 82 92 dc 3c 1f 11 bb 3c
       0.047099017 0.06594433 0.02692533 0.022835312
000310 96 d6 4f 3d e9 fb 48 3d 67 f7 7e 3d 3d 31 35 3d
       0.050741754 0.049068365 0.06224766 0.04423641
000320 e7 24 5a 3d 6e f5 66 3d 1d 70 04 3d a4 b6 09 3d
       0.05325785 0.056386404 0.032333482 0.033621445
000330 2d 61 06 3d bb 32 4e 3d 67 3f fb 3c 3f ac a6 3d
       0.032807518 0.05034135 0.030669881 0.08138322
000340 fd 47 67 3d a2 9f 99 3d 25 f4 ee 3d da f3 d0 3c
       0.056465138 0.07501151 0.116676606 0.025506902
000350 96 a3 b8 3c 88 ff 39 3d bf 1a cf 3c c5 53 b2 3d
       0.022538941 0.04540971 0.025281308 0.08707384
000360 27 b1 5b 3e b8 20 9c 3d 1c db a7 3d 7e 75 e8 3c
       0.21454297 0.07623428 0.08196089 0.028376337
000370 0e 09 f3 3c 8b 15 9e 3c d5 ec e8 3c 33 b4 84 3d
       0.029667404 0.019297382 0.028433243 0.06479683
000380 7b 35 a6 3d 14 40 cc 3d 67 50 f4 3d aa 51 35 3c
       0.08115669 0.099731594 0.11929398 0.0110668335
000390 44 73 d9 3d eb c5 f4 3d 1a fc 8e 3d 0d 38 82 3c
       0.10617688 0.11951812 0.06981678 0.015895868
0003a0 2c 23 1d 3d 36 b5 45 3d 0f e8 1b 3d 3c 71 84 3d
       0.03836362 0.04826852 0.038063105 0.0646691
0003b0 46 a9 e0 3c 17 4c a8 3c 4f 80 69 3d 90 95 1b 3e
       0.027424466 0.020544095 0.05700713 0.15193772
0003c0 a8 48 0b 3e da d0 b2 3c f1 a4 d0 3d 12 74 15 3c
       0.13601935 0.021828104 0.1018771 0.009121912
0003d0 0c ae 54 3d 4a 63 da 3d 21 97 f7 3d e6 48 33 3d
       0.051923797 0.10663469 0.120893724 0.043770693
0003e0 3e d1 ac 3c c7 cb 72 3c 08 47 8e 3d 44 1e b4 3c
       0.021095868 0.014819092 0.06947142 0.021987088
0003f0 57 d6 0b 3d 7d 33 02 3e c7 36 17 3d 7b b3 b2 3d
       0.034139957 0.12714954 0.036917474 0.087256394
